ModelParams/sac_critic.pth (torch_old, 669376 bytes, 10 tensors)

linear1.weight f4 [256, 67]
000000 83 fc 8a bd f9 ec ed bb 51 98 02 bd 30 1a 2c 3e
       -0.06786444 -0.0072609154 -0.03188354 0.16806865
000010 59 78 25 be 87 b8 a7 bd 89 f5 c4 3d dd 12 5e be
       -0.1615919 -0.08189493 0.096171446 -0.21686883
000020 57 6d 24 3b 97 8e 9e bc f2 44 bb 3d ef be 02 3d
       0.0025089586 -0.019355102 0.0914401 0.03192037
000030 3c c4 5f 3d 74 bb 11 3d 07 16 5c bd 9e 15 47 bd
       0.054630503 0.03557916 -0.053731944 -0.0486046
000040 5f b8 10 3d be 58 25 be c0 6f ad 3d eb 58 18 be
       0.03533208 -0.16147134 0.0846858 -0.1487767
000050 af ac 09 bd 17 f1 b5 3c 73 ef 6e be e0 58 3d 3d
       -0.03361195 0.022209687 -0.2333353 0.046227336
000060 27 d2 2c bc b5 b4 f1 3c 40 b1 9b bd 8c ba 2d 3e
       -0.010548151 0.029505113 -0.07602167 0.16965693
000070 fc c6 e3 bc 34 d9 98 bd 9c 8d 88 3d 85 3f 82 3c
       -0.027804844 -0.07463303 0.06667635 0.01589943
000080 47 74 fe bc 33 f1 95 bd 96 01 c0 3d f8 80 be bd
       -0.031061305 -0.07321396 0.093753025 -0.093019426
000090 e9 d3 8d 3c 81 a7 d2 bb 2f 70 eb bd 68 23 59 be
       0.01731296 -0.0064286594 -0.11496007 -0.21204913
0000a0 bc 7e 97 3b d9 7b c2 bd e5 62 8e 3a 4d 5e 1a bd
       0.004623262 -0.09496278 0.0010863213 -0.03768759
0000b0 bf eb ba 3d 9b 43 b8 bd 95 4b 17 3e 65 44 c8 bd
       0.09126996 -0.0899727 0.14774926 -0.0977867
0000c0 49 b6 b7 bd 6a 18 1a bd b0 3c 4d bd b2 cf 33 3e
       -0.08970315 -0.03762094 -0.050106704 0.17559698
0000d0 19 9b d8 bd 62 00 20 be 54 ee e3 3c db 53 7f 3d
       -0.105764575 -0.15625146 0.027823605 0.06233583
0000e0 46 fa 16 be b5 3e 7e 3d 35 a4 f6 bd 8c 80 08 be
       -0.14743909 0.06207152 -0.12043039 -0.13330287
0000f0 62 d2 0d be c2 db 98 3c 71 3c 07 be b9 fe bd bd
       -0.13849786 0.018659476 -0.1320665 -0.092771
000100 0b f0 78 bd 8e 19 8f 3d 8c f7 7a 3d 5f 1d 6b 3b
       -0.060775798 0.06987296 0.061271235 0.003587566
000110 f1 b5 99 be 5e fc 6e 3d 52 37 d6 bd 90 73 60 bd
       -0.30021623 0.058346145 -0.1045977 -0.05479771
000120 ce e5 0c 3e 65 fc 80 3d 23 7c 65 bd 38 fe b5 3d
       0.13759539 0.062981404 -0.05602659 0.08886379
000130 f0 67 07 3d 18 93 10 3e b5 2f 9e bd 89 54 39 bc
       0.033058107 0.14118612 -0.07723943 -0.011311659
000140 59 22 19 3e c0 28 df bc 8b 47 28 bd 3b f3 6b bd
       0.14954509 -0.02724111 -0.041083854 -0.05760501
000150 c5 64 5c bc 79 24 05 3e 47 90 0e be 6e 3e c1 bd
       -0.01345176 0.13002194 -0.13922225 -0.09435736
000160 5b a5 2a be de 73 3c bd cc 9b e8 3d ed 35 95 bc
       -0.1666464 -0.046008937 0.11357841 -0.01821419
000170 07 6c fb 3c 51 fa 24 be d9 bc e0 3c 8a c5 46 be
       0.03069116 -0.16111113 0.0274338 -0.19411293
000180 66 17 a3 3d b5 fe 1a bd 07 79 69 bc 89 ce af bd
       0.07963447 -0.037840564 -0.014250047 -0.08584315
000190 c9 16 8c bc 38 d8 00 bd 57 77 04 be 36 78 59 3e
       -0.017100709 -0.031456202 -0.1293615 0.21237263
0001a0 2e ad c1 bd 89 33 e9 bc 99 c2 0d bd d3 65 fc bd
       -0.094568595 -0.028466957 -0.03460941 -0.12324109
0001b0 d1 f4 f3 3d f9 f1 a9 bd b1 86 a7 bd e7 08 5e ba
       0.119119294 -0.08298106 -0.08179987 -0.00084699545
0001c0 35 2b 2c be 7a 43 4c 3e 40 91 67 3d 8f 24 b9 bc
       -0.16813357 0.19947615 0.056535006 -0.02260044
0001d0 8b 4f e4 bd bc 5a 68 3e 12 6e ee 3a 2c 40 ba 3d
       -0.11147984 0.22690862 0.0018190762 0.09094271
0001e0 20 81 b8 3c 5d 57 f6 3b 6b 26 2a be 29 52 0c be
       0.02252251 0.0075177387 -0.16616218 -0.13703217
0001f0 fa bb aa bd f6 b3 97 3d 05 08 7f 3d 9e 5e bc 3d
       -0.08336635 0.07407372 0.062263507 0.09197734
000200 f4 41 20 3e 58 f8 76 3c 88 ce 1e be 8c 02 fd bd
       0.15650159 0.015073858 -0.15508473 -0.123540014
000210 a2 18 84 bb c7 36 69 3e 70 d8 fe 3c 93 08 ea 3c
       -0.004031257 0.22774802 0.031109065 0.028568542
000220 a1 78 1d bd 05 f5 11 be 06 74 81 3d 0a 9a 9c bd
       -0.03844512 -0.14253624 0.06320958 -0.07646568
000230 2d 9e 2f 3e 1e 37 9d bd 69 f1 ec 3d 2e 9f b3 3d
       0.17150183 -0.076765284 0.11569483 0.087705955
000240 4b 7d 60 3c 56 43 f2 3c 27 d7 21 be 6c 1f ab bb
       0.013701747 0.029573124 -0.1580473 -0.0052222516
000250 c6 b0 98 3d b4 11 a7 bd 72 de 15 bc b1 0e 55 bd
       0.07455592 -0.081576735 -0.009147273 -0.052015964
000260 da 41 12 bd ad 53 3d 3c 64 9c 89 bd a0 fa 30 3c
       -0.035707332 0.011555594 -0.06719282 0.010801941
000270 12 9b 3c bc c2 9f 86 3d 6c 26 3b 3e 9f 21 ae bd
       -0.011511581 0.0657344 0.18276376 -0.085025065
000280 b7 d5 36 bd 1c 86 45 bd d9 de 00 be 20 21 29 be
       -0.044637408 -0.0482236 -0.1258501 -0.16516542
000290 5a 5c 21 be a8 59 5a bd 13 78 56 3c 54 7c 1f 3c
       -0.15757886 -0.05330816 0.013090151 0.009734232
0002a0 b2 78 e2 bd 0d da 2c 3e 47 f0 33 be a5 4a dd 3d
       -0.11058177 0.16880055 -0.17572127 0.10805253
0002b0 13 4e 13 bd bb 4f 70 be 34 50 76 3c 0e b7 28 3e
       -0.03596313 -0.23467915 0.01503377 0.1647608
0002c0 af 66 80 bd af e3 60 3d 97 0b 8c 3d 8f d7 87 3d
       -0.06269585 0.054904636 0.06838148 0.066329114
0002d0 1e b4 95 bc 01 ca ff bd ab 93 f4 3d 4f 3c 18 be
       -0.018274363 -0.12489701 0.11942228 -0.14866756
0002e0 cf c5 e1 bd 46 27 c8 bd 04 1f 87 bd 2a 0d 30 be
       -0.11024057 -0.09773116 -0.06597713 -0.17192522
0002f0 97 21 2f 3e e0 95 44 bd 9c 3a d6 bc 8e fb eb 3d
       0.17102657 -0.047994494 -0.026150994 0.115225896
000300 c3 b5 4a bc 33 aa ff bd cb fa 39 be 9e 15 43 3c
       -0.012372437 -0.12483635 -0.18162076 0.011907009
000310 9a 5c 26 be cf e5 c4 3d 1f 07 2d be f6 8d 6b 3c
       -0.16246262 0.09614145 -0.16897248 0.014377108
000320 52 9e 0c be 59 cd 5d 3c 96 38 2a 3e 3b 29 c9 bd
       -0.1373227 0.013537728 0.16623148 -0.09822317
000330 e9 e9 cc bb 66 18 46 be 7f 39 2a bd a6 a5 3e 3e
       -0.00625347 -0.19345245 -0.04155874 0.18617877
000340 0b 28 66 bc 3b b6 63 3d 3e bc 7f 3d f7 fc f4 bd
       -0.014047633 0.05559371 0.06243538 -0.11962312
000350 93 13 91 3d 6a 87 cd 3c 90 91 8f 3d db e7 a6 bd
       0.070838116 0.025088985 0.07010186 -0.08149692
000360 d8 de d1 3d 15 b6 2d 3e 83 74 1d be f9 f3 a2 3d
       0.10247582 0.1696399 -0.15376477 0.0795669
000370 21 c7 bb 3d c7 3d 3d bd 17 89 aa 3d a2 35 c6 3c
       0.0916884 -0.046201494 0.08326929 0.024195496
000380 54 03 2f 3e 1f d0 39 3e 2d 6f 10 be 9b 98 0c 3d
       0.17091113 0.18145798 -0.1410491 0.034325223
000390 b5 8f 73 3d e6 2c 3d 3c d1 a8 cd 3d 88 f5 4d 3c
       0.05946322 0.011546349 0.10041965 0.012570746
0003a0 72 63 da bd d4 b6 73 3d 10 07 76 3d d4 d1 75 bd
       -0.10663499 0.05950053 0.06006533 -0.06001456
0003b0 6d ac ed 3b 95 02 3a 3d f4 1e 25 3e 55 42 9a 3c
       0.007253221 0.04541262 0.16125089 0.018830458
0003c0 98 03 c8 3d 51 98 f6 3d dc fe c7 bd 5c 75 e1 3a
       0.097663105 0.12040771 -0.097654074 0.0017201114
0003d0 ec e5 ce bd 49 aa 18 3e 1f 99 d1 3d 7f 8e a0 bd
       -0.10102448 0.14908709 0.10234284 -0.07839679
0003e0 0b c4 9a 3d 7e b3 98 bd 91 4f 36 3e dc db 32 3d
       0.075569235 -0.074561104 0.1780379 0.043666705
0003f0 40 46 df 3d 06 8e bf 3b 73 18 da 3d 95 6a a6 bd
       0.10902071 0.005845788 0.106491946 -0.08125798

linear1.bias f4 [256]
000000 02 b7 11 bc 28 be 2f bd 47 62 10 3c db 9d 2b 3d
       -0.00889373 -0.042905957 0.008812494 0.04189859
000010 60 ce ab 3c f3 13 77 3b 21 fe 74 bc 80 0c 59 3d
       0.02097243 0.00377011 -0.014953167 0.052990437
000020 21 0c 4e 3c 24 e5 d2 bb 5c 3b f4 3a cd 68 81 3b
       0.012576134 -0.006436007 0.0018633413 0.003949261
000030 39 42 e4 bc 6e bd 74 3b e6 9d ac 3c 0b 42 0c 3d
       -0.027863609 0.0037344354 0.021071386 0.03424267
000040 cb 0c 89 3d 0b 3c ad 3c 26 ac 4b 3a 17 f4 0f bc
       0.06691893 0.021146795 0.00077694876 -0.008786223
000050 c7 60 62 bd 85 0d 8c bd 24 0b 19 3c d5 c4 06 3d
       -0.055268075 -0.06838516 0.009341035 0.032902557
000060 1c dd 0d bd 1f b2 13 3c 98 02 d8 bc 0a e9 65 bd
       -0.034634694 0.009014635 -0.026368424 -0.056130446
000070 36 8f 2b 3d f0 dd 26 3d 3e a6 23 bc 38 2d cd bb
       0.041884623 0.040739 -0.009988366 -0.006261494
000080 2c c6 15 bd 2f ce 81 bd 7c 1a ad bc e0 71 95 bc
       -0.036565945 -0.063381545 -0.021130793 -0.018242776
000090 4f 64 35 3d 2a d8 97 3c 4d ac 87 3c 95 95 03 3d
       0.044285115 0.018535692 0.016561652 0.032125074
0000a0 d0 2e 27 3d 01 ae 54 bc ce ba 8e bd 4a b5 1b 3b
       0.04081613 -0.012980939 -0.06969224 0.002375918
0000b0 5e 79 09 3d a4 e2 5e bb d9 2a b6 bc 92 42 a7 bc
       0.03356301 -0.00340096 -0.022237228 -0.020417485
0000c0 30 2c ea 3c 31 1e 7c 3b 63 43 c6 bb 2d b8 42 3d
       0.028585523 0.0038470144 -0.0060505136 0.047538925
0000d0 ef 73 09 bb b7 93 ed bb b0 47 59 bd 4e b0 de bc
       -0.0020973643 -0.007250275 -0.053046882 -0.027183678
0000e0 17 ac 98 bc 3b 4c 5b bd df ef 73 3c d4 6c 02 bd
       -0.018636746 -0.053539496 0.014888733 -0.031842068
0000f0 f0 aa 14 3d 5c a6 99 bb 46 19 c7 3c fe 9b 69 bc
       0.03629583 -0.004689021 0.024304044 -0.014258383
000100 a8 e2 98 3c 95 87 4d 3d 81 bf 90 bc 19 93 c9 3b
       0.018662766 0.05017813 -0.017669441 0.0061515686
000110 69 06 8c 3c 60 44 69 bc ac 4d bf bb 35 f4 3e bd
       0.0170929 -0.014237493 -0.0058381166 -0.046619613
000120 ac 20 84 3b df 62 d1 ba a6 77 a9 3c ae 41 34 3d
       0.004032215 -0.00159749 0.020686936 0.04400795
000130 25 3d f8 bc 8c 5d f5 3a 24 bb 11 bc 00 0d 9e bc
       -0.030302593 0.0018719896 -0.008894715 -0.019293308
000140 53 1e 19 3b 3f d6 51 bc e9 ff 59 bd a8 8b 1c 3d
       0.0023364022 -0.012807428 -0.05322257 0.038219124
000150 a8 ad 21 3d e0 a4 8c bb 62 dd 1d bc 02 1d 0b 3d
       0.039472252 -0.0042921156 -0.009635301 0.03396321
000160 02 0e 1d 3c 5b d3 5b 3d f9 07 b3 3c 2b b8 30 ba
       0.009585859 0.05366836 0.021854388 -0.00067413104
000170 1e 03 53 3c aa a7 af bb 54 83 26 b8 0a 7c f6 3c
       0.012879161 -0.0053605633 -3.9699793e-05 0.030088443
000180 d5 dd 9f 3c 45 6c f3 bc 5e 7f 24 3d f6 cd a3 3c
       0.019514957 -0.029714713 0.04016053 0.01999567
000190 6e c2 a2 3c e6 b1 ac 3b f8 0e 85 3c d1 cf c6 3c
       0.019868102 0.0052702306 0.01624249 0.024269016
0001a0 f5 8c 56 3c a0 d8 a9 ba 70 bf 23 3c d1 07 4f bd
       0.01309513 -0.0012958236 0.009994373 -0.050544564
0001b0 b2 46 ed 3a 13 c1 44 bc 45 c0 03 3b e9 70 de 3c
       0.0018102734 -0.012008923 0.0020103615 0.02715345
0001c0 a6 04 88 bc f2 54 f7 3c 71 c8 a4 bc b2 80 bf bb
       -0.016603779 0.030191872 -0.02011511 -0.005844199
0001d0 86 b1 f1 3c c9 ec f6 3c 7f e1 2a 3d 54 34 48 bd
       0.029503595 0.030142205 0.041718956 -0.04887803
0001e0 84 02 72 3b c1 cb 18 3b 7c 7a 35 bc 38 97 1e 3d
       0.003692777 0.0023314806 -0.011076566 0.038718432
0001f0 fe cf de 3c 0d 2d 80 bd 9c 43 b0 3c a3 6e 9f 3c
       0.027198788 -0.06258593 0.021516614 0.019461935
000200 2f b5 ea bb ec 86 cb 3c 63 49 4e 3c 13 05 a3 3c
       -0.007162712 0.02484461 0.012590739 0.01989988
000210 00 54 36 3c 7c cd 0e bc b3 90 0e bd 30 08 f6 3c
       0.011128426 -0.0087159835 -0.034805965 0.030033201
000220 b0 42 bc 3c a8 28 fa bc 02 fb 45 3c c4 7d 80 3d
       0.022981018 -0.030536965 0.012083771 0.06273988
000230 06 3b 8d bb 78 fb 3b bc aa e1 15 3d c1 18 bc bc
       -0.0043100147 -0.011473529 0.036592163 -0.022961022
000240 eb b2 cb 3c ea 4f 2f 3d ca b9 da bc 7e a8 5d bd
       0.024865588 0.04280082 -0.02669992 -0.054115765
000250 10 e0 78 3d 6c e5 15 bc c4 c8 18 3d d3 c1 83 3b
       0.060760558 -0.009148937 0.03730084 0.0040209084
000260 39 ad b5 3c b4 19 13 3d 67 39 e4 3c 53 80 79 bc
       0.022177326 0.035913184 0.027859403 -0.015228349
000270 37 8c 63 bc 41 46 b5 3c 33 4b b0 3c d6 6f 62 3c
       -0.01388841 0.022128226 0.021520233 0.013820609
000280 cb 73 ef bb 99 6e 4e bc 89 60 54 3d 86 fe 29 38
       -0.007307505 -0.012599611 0.051849876 4.0529783e-05
000290 69 8d e8 bc d8 8d 1f bd d7 bc 2e 3d 69 e6 3a 3d
       -0.028387742 -0.038953632 0.04266056 0.045629892
0002a0 18 75 9a 3d 12 76 0d 3b fb 69 d6 3c d7 12 9c 3c
       0.07541865 0.0021585268 0.026173582 0.019051952
0002b0 6a 7f a7 bc dd 7c e7 3c 8b 0d c2 3b 69 fe 76 bb
       -0.020446498 0.028257782 0.0059220246 -0.0037688261
0002c0 d5 3c 9d 3b ad aa e9 bc b9 4b ba 3c f7 51 0d bc
       0.0047985115 -0.028523767 0.022741186 -0.008625499
0002d0 1a 16 56 3c 94 9d 28 3d d3 88 26 3c 76 7f 6d 3c
       0.013066793 0.041165903 0.010164457 0.014495721
0002e0 98 0b 1e bd 13 29 3f bc 54 db 2a 3c 3b 9e 3d bc
       -0.038585275 -0.011667508 0.010428268 -0.01157337
0002f0 83 59 bb 3c 61 03 bd bc 07 ef d2 bb fd 30 83 bc
       0.022869831 -0.0230729 -0.0064371857 -0.01601457
000300 24 f4 9e 3c a2 10 32 bd e1 65 8b bd 34 f5 1a bd
       0.019403525 -0.043472894 -0.06806541 -0.0378315
000310 95 22 b0 bb ac 63 a7 bc d8 a1 3f 3d 7a c5 e2 bc
       -0.0053752162 -0.02043327 0.046785206 -0.027682055
000320 dc 3a 32 bd 22 bb 8f bc b5 45 98 bc 62 d6 a2 bc
       -0.043513164 -0.017545287 -0.018587926 -0.019877616
000330 7e a8 b3 3c 3c dd 4c 3d e1 10 ac bb a0 a5 41 bd
       0.02193093 0.050015673 -0.0052510356 -0.047277093
000340 be 8a 36 3d a9 ab 1b 3d 1f d2 d7 3c 97 dd d3 ba
       0.04456591 0.038005505 0.02634531 -0.0016164061
000350 bd 30 9c 3c 3b 6e 45 3d 85 03 53 3d 9b 2d 87 3c
       0.019066209 0.048200827 0.05151703 0.016501239
000360 53 c0 98 3c cf f9 1f 3d c3 93 29 bd a0 41 2f bc
       0.018646395 0.039056595 -0.041400682 -0.010696799
000370 50 2a af bc e7 a5 5f bd da a3 01 3c 62 19 57 bc
       -0.02138248 -0.054601576 0.0079126 -0.01312861
000380 6b f8 b1 3d 93 36 0c 3a c7 a5 68 3c 21 d7 17 3d
       0.0868996 0.00053487084 0.014199681 0.037070397
000390 fb 46 89 3d ca 32 59 3d 93 ba 45 bc d5 c9 b8 3c
       0.067029916 0.05302695 -0.012068409 0.022557179
0003a0 23 90 40 3d 78 91 52 3d 89 58 ed bc 2d ce 47 3c
       0.04701246 0.05140826 -0.02897288 0.012195152
0003b0 0e 1d 08 bd 33 82 28 3a 33 38 f5 bb 7a 68 ea 3c
       -0.033230834 0.00064280926 -0.007483506 0.028614271
0003c0 f8 e2 0a 3d f8 9a 51 3d ea 5c 54 3d 4d d5 1f bd
       0.03390786 0.05117318 0.051846422 -0.03902178
0003d0 ac 82 38 bc 60 9a c3 3b d5 b3 1a bd 00 43 48 bc
       -0.011261623 0.0059693307 -0.037769157 -0.012223005
0003e0 ed f5 83 bc dd 05 d6 bb 22 dd dc bc e1 75 ad bc
       -0.016108477 -0.0065314607 -0.026960913 -0.021174373
0003f0 0d 5d 6b 3c 06 fe d8 bd 51 28 a9 bc b6 b6 8e 3b
       0.014365447 -0.10595326 -0.020649107 0.004355277

linear2.weight f4 [256, 256]
000000 8f 64 15 bd bb 4b 0a 3c 2c bd 60 bd 50 0c 94 3d
       -0.036472853 0.008440907 -0.05486791 0.07228911
000010 37 7f 0b 3e 6d e4 95 3d 91 43 a3 3d 57 7e db 3d
       0.13622747 0.073189594 0.07971872 0.10717457
000020 35 69 8b 3b b4 3f 5d bd cd 17 3e be 0a ea 81 bd
       0.004254485 -0.05401583 -0.18563767 -0.063434675
000030 3f 1d 91 3c d0 04 2b bd 72 12 bd bd c5 bf b6 3d
       0.017714141 -0.041752636 -0.09232034 0.08923296
000040 92 2b fb 3d 94 b1 98 3d 36 4c 44 be 3f a0 af bd
       0.1226417 0.07455745 -0.19169697 -0.085754864
000050 cb fa 05 3e d9 c9 fe bd ab 04 2f 3c 8e f4 6c 3e
       0.13083951 -0.12440843 0.010682265 0.23140165
000060 b2 09 2b 3b 9d 18 05 bd 91 af 2c 3c 5c 82 23 be
       0.0026098308 -0.032494176 0.010539905 -0.15967697
000070 47 17 90 3c 63 f0 f8 3c b5 a9 4e bd a9 b9 be bd
       0.017589225 0.030388063 -0.050454814 -0.093127556
000080 d4 cc 3d 3d 2f c6 61 bd 39 ca 6c be 89 cc af 3d
       0.046337917 -0.055120643 -0.23124017 0.08583934
000090 02 8f 09 3d 1d 01 90 3c 8c 44 5c bb 75 6b b9 3d
       0.03358365 0.017578656 -0.0033610193 0.09053699
0000a0 05 67 13 3e 6d f8 1e 3e bd bf 69 3d 0b 47 af 3d
       0.14394768 0.15524454 0.05706762 0.08558472
0000b0 ce c0 20 be cf b0 99 3d c2 76 c4 bd b3 f8 43 3d
       -0.15698549 0.07504427 -0.09592964 0.0478446
0000c0 da f5 88 3d 1c 82 a2 3c a3 dd 8b 3d 13 51 2d 3d
       0.066875175 0.019837432 0.06829383 0.042313647
0000d0 66 d5 fd 3b df 8c cf bd 8a 52 9c 3d 59 5d b8 3b
       0.0077463863 -0.10134291 0.076329306 0.0056263623
0000e0 ba 09 17 be a5 6c 27 be 63 ac fc 3d 05 b4 db 3d
       -0.14749804 -0.16350038 0.12337568 0.107276954
0000f0 f6 77 c5 bb 1c ba 96 3d 25 e3 b8 bc 1c f7 aa bd
       -0.0060262633 0.07359716 -0.022569248 -0.083479136
000100 f5 08 f4 3d 7b 1f ff bd 00 6f 28 3e ce 08 29 3d
       0.11915771 -0.12457176 0.16448593 0.041268162
000110 36 c8 c8 3d 31 d9 7f be d9 6e 87 bd be 13 ca 3d
       0.09803812 -0.24985196 -0.066129394 0.09867047
000120 7c e2 26 bd 02 74 ad bd 98 fd 27 3d e5 15 9d 3d
       -0.040743336 -0.08469392 0.04101333 0.07670192
000130 c2 6f 94 3d 67 18 f0 3d 6f e1 6f 3c 67 78 80 3d
       0.072478786 0.117234044 0.01464115 0.06272965
000140 53 db b1 bd d1 04 37 3e 59 d5 92 bd d3 2c b5 3d
       -0.08684411 0.17872931 -0.07169599 0.0884644
000150 59 a9 2b be d1 b3 4a 3c 33 93 cc 3d 3d 79 84 bd
       -0.1676382 0.012371973 0.099890135 -0.06468437
000160 16 fe 08 be 37 d7 0d 3e 29 f7 58 3d aa 35 66 bd
       -0.13378176 0.13851629 0.052970085 -0.05620352
000170 ca 27 cb 3d b5 b0 a7 bd 3a f2 d9 3b f2 87 d8 3d
       0.099196985 -0.08188001 0.00665119 0.105728045
000180 ab 22 66 3d d3 4c da 3d 45 c5 f5 bd 97 b1 bf 3d
       0.056185406 0.10659184 -0.12000517 0.093600444
000190 c3 a9 b7 3c 1a d6 5e bd 0f 7a c5 3d 39 b9 ac bd
       0.022419816 -0.054403402 0.096424215 -0.08433766
0001a0 e7 17 8b 3d 7b 7b cb 3d 24 ca f7 3c 96 49 f3 bd
       0.067916684 0.099356614 0.030247755 -0.1187927
0001b0 76 69 fd 3c 05 e9 92 bd 67 a8 ec bd 8f c7 09 3e
       0.030934077 -0.07173351 -0.11555558 0.13455032
0001c0 ae 7b c7 3c c1 fb dd 3d 42 01 3a bd 70 e8 94 3b
       0.024350967 0.10839034 -0.045411356 0.0045443103
0001d0 a4 26 72 3b 48 ca 2a bd 59 d1 b1 bd 03 5e af 3d
       0.00369493 -0.041696817 -0.08682508 0.08562853
0001e0 f9 74 a3 3d c9 ab 91 bc fc dd e6 3c c3 37 92 bd
       0.07981295 -0.017782109 0.028182022 -0.07139542
0001f0 72 42 fb bc b7 aa b6 bd bf ad dd 3d 6a a1 b2 3c
       -0.030671332 -0.0891928 0.10824155 0.021805484
000200 06 52 ed 3d c4 d4 63 3b 90 d1 e5 3d 63 61 33 3e
       0.1158791 0.003476427 0.112216115 0.17517619
000210 9e 64 07 be 41 ac 2d bc f7 5f f4 bd be 14 65 3d
       -0.13221976 -0.010600151 -0.11932366 0.055927984
000220 5d 7e 4c 3d c2 1b 60 be 49 19 d0 bd 11 84 d2 bd
       0.049925197 -0.21885589 -0.10161073 -0.10279096
000230 23 bb 4f be be 21 36 be 67 78 2e bd 2e 3c 07 3e
       -0.2028623 -0.17786309 -0.042595293 0.1320655
000240 94 f0 26 bc 63 a3 b9 bd 6c e7 4b bd 48 12 cb 3c
       -0.010189194 -0.09064367 -0.049781248 0.02478899
000250 7b 24 4a 3c 9a 94 7b 3a cc 9e f5 bd f9 0a 83 be
       0.012337799 0.00095970335 -0.11993179 -0.2559431
000260 74 5f a8 bc a8 7a 9e 3c 0d 0f 1c be a3 15 01 3e
       -0.020553328 0.019345596 -0.15240116 0.1260591
000270 f3 4d b2 3d 78 08 1b 3e 63 fe 44 bd 6b 81 da bd
       0.08706274 0.1513995 -0.048094165 -0.10669216
000280 37 70 69 3d 55 dc 74 3d 41 84 89 3d dc 5d 84 bd
       0.056991782 0.059780437 0.067146786 -0.06463215
000290 96 67 00 3e 51 67 a9 3c b9 76 02 be 81 3f 67 bc
       0.12539515 0.020679148 -0.12740602 -0.014114262
0002a0 e0 29 4b bc 42 74 b7 3d 2f 59 af bd 6a d0 df bd
       -0.0124001205 0.08957721 -0.08561932 -0.10928424
0002b0 ee 18 f6 bd 7d 42 24 bc 0b 56 7e bd 47 50 d9 bc
       -0.12016474 -0.010025618 -0.062093776 -0.026527537
0002c0 ee 86 ab bd 97 58 59 3d 44 b4 57 3d 51 71 0d be
       -0.08375345 0.053063 0.05266215 -0.13812758
0002d0 0f b9 d8 bd e3 aa e4 bd d8 2b 10 3e 46 04 1c be
       -0.10582172 -0.111654066 0.14079225 -0.15236005
0002e0 12 f8 b6 3d 8f ed 0d be 17 f3 63 3d 39 40 39 be
       0.089340344 -0.13860153 0.05565175 -0.18090905
0002f0 f4 0d 23 3d db 38 55 be bb ef c8 3d 79 66 ad 3b
       0.03980823 -0.2082247 0.0981135 0.0052917567
000300 67 86 28 be 7f 20 91 3d 08 a7 f7 3d 3e 2d 08 be
       -0.1645752 0.07086276 0.120924056 -0.13298509
000310 e0 62 9c bd 01 55 c2 3d 76 de b1 3c 61 35 fa 3d
       -0.076360464 0.094888695 0.021712523 0.122172125
000320 cc aa f1 bc 9f 08 8e bb 73 c6 2a 3d aa 68 a3 3d
       -0.029500388 -0.004334524 0.041693162 0.079789475
000330 4f 91 b1 bd 43 f2 b2 bd a4 3d 38 3c 6b 24 14 bd
       -0.086702935 -0.08737614 0.011245165 -0.036167543
000340 f4 dd b4 bc a5 c5 ad bd b9 4d 1d 3d 21 5f 23 3d
       -0.022078492 -0.08484963 0.0384042 0.039885644
000350 7b aa ae bc aa a5 16 bd c1 5a cd bd 54 06 d9 bc
       -0.021321526 -0.036779083 -0.100270756 -0.026492275
000360 8d e6 31 3d c7 44 c2 bc c6 1b 61 3b 8b b6 db bd
       0.04343276 -0.023714436 0.003434883 -0.10728177
000370 c0 de 94 3d a2 8a 86 3c 94 9d a5 bd 5a e8 01 3c
       0.07269049 0.016423527 -0.08086696 0.007928932
000380 9a 6e fe 3c 13 41 87 3c 24 0c f3 3c 00 46 10 3d
       0.031058598 0.016510522 0.029668875 0.035223007
000390 98 c2 60 3c 1a a3 42 3d c4 9c 98 bd ce 19 a7 3b
       0.01371827 0.047518827 -0.07451776 0.0050995117
0003a0 2e a4 a4 3d fe a9 c6 bd 4d 72 4b 3d f8 59 7c bd
       0.08039127 -0.09700392 0.049669553 -0.06160924
0003b0 bc f4 04 3e 7b 6d bc bc 7d c7 ca bc 53 de e8 bd
       0.12983984 -0.023001423 -0.024753327 -0.1137053
0003c0 86 28 56 3d 2b 2f 20 3e ca 78 f5 3d 06 c8 ab bd
       0.05228474 0.15642993 0.11985929 -0.08387761
0003d0 a5 9f 55 be 67 62 57 3d 0b af 07 3e ff df 1e be
       -0.20861681 0.05258408 0.13250367 -0.15515135
0003e0 85 dc 0a bd 76 98 27 3e 16 86 6b 3d 24 da 53 3d
       -0.03390171 0.16366753 0.05750092 0.051721707
0003f0 07 b6 03 3e 8e 7d 6d 3d 37 04 ab 3a c5 2b e6 3d
       0.12862407 0.057981066 0.0013047521 0.11238817

linear2.bias f4 [256]
000000 f6 7e 0f bc 9a f0 fb 3c ea 45 9c 3c 47 17 92 3c
       -0.008758297 0.030754376 0.019076306 0.017833365
000010 05 bb a8 3b 01 05 ef 3a b4 ba a3 36 65 a8 23 bc
       0.0051492476 0.0018235744 4.8795137e-06 -0.009988879
000020 df 1b 81 bc 0b e6 9d 3c 92 04 33 3b f7 dd 4b 3c
       -0.01576036 0.019274732 0.0027315957 0.012443057
000030 8b 0d 11 3d 01 b1 ce 3c 84 dc 18 3d fb e1 57 3c
       0.035413306 0.025230886 0.037319675 0.013176437
000040 1b 0e a9 39 0f 03 a5 3c b7 f4 13 3d 15 23 b1 3c
       0.000322447 0.02014306 0.03612205 0.021623174
000050 51 6d 3d 3c 61 b9 ef 3c 33 8f bc 3c 6b 94 1f 3d
       0.011561708 0.0292632 0.023017501 0.0389599
000060 22 1a 62 bb 5d 94 55 3c f5 8e 34 ba 66 cf 31 bb
       -0.003450044 0.013035861 -0.00068877573 -0.0027131676
000070 ec 1f 02 3d 23 0b 89 3b 8a c1 c9 3c 24 d6 9b 3c
       0.031768724 0.004182236 0.02462842 0.019023009
000080 c3 9d a7 bc 43 54 17 3d 7f ce 58 3c b8 1c b3 3c
       -0.020460969 0.036945593 0.013232826 0.02186428
000090 30 8a f5 3c 99 20 fd bb f1 d1 8f 3c 06 04 ac 3c
       0.02997312 -0.007724833 0.017556163 0.020998012
0000a0 cb da bd 3b ae ed be 3b 0e 39 c0 3c 1a 6e 23 3c
       0.0057939044 0.0058266735 0.023464706 0.009974981
0000b0 64 7b f7 3c 90 b4 82 3c c0 18 a1 3c 37 2b 94 3b
       0.030210204 0.01595524 0.019665122 0.004521753
0000c0 dc 6c a4 bb 6e 76 1e 3b 8c 59 92 3c 8a 65 37 3c
       -0.00501786 0.0024179476 0.017864965 0.011193642
0000d0 a0 ff 9c 3c c5 b8 3a 3d d9 0c fc 3c 72 b3 be 3c
       0.01916486 0.045586366 0.030767845 0.023278926
0000e0 32 23 80 3c 50 02 7d 3c 1c 66 9b 3c 48 a2 6a 38
       0.015641782 0.015442446 0.018969588 5.5941084e-05
0000f0 f0 11 45 bb a6 21 5a 3a 54 ff 6d 3c 7a 19 f9 bc
       -0.0030070506 0.0008321054 0.014526207 -0.030407656
000100 bb 12 95 3c d1 64 7c 3c 51 86 2f 3c e2 ab a3 3c
       0.018197408 0.015404896 0.010713176 0.019979421
000110 7a 5e 82 3c 52 12 be 3c 78 f5 b2 3c 49 9f 01 3d
       0.01591419 0.023202095 0.021845564 0.031646047
000120 19 c5 8f 3c f3 0f da 3c ca c2 1c 3c 2c e7 ed ba
       0.017550038 0.026618933 0.009567926 -0.001815056
000130 46 3f c8 3c 3a 92 3a bb 45 51 38 3c f7 14 74 3c
       0.024444234 -0.0028468505 0.011249845 0.0148975765
000140 c2 a1 ac 3c 6b 54 96 3c 44 6e b7 bc b2 4b 74 3c
       0.021073226 0.0183508 -0.022391446 0.014910625
000150 17 77 fb 3b 58 bd 98 bc cf b9 61 3c 89 d8 21 bc
       0.0076741087 -0.018644974 0.01377721 -0.009878286
000160 2c 98 81 3c 90 8f 17 bb e5 af 9a 3c b2 47 b9 3c
       0.015819632 -0.0023126341 0.018882701 0.022617195
000170 cb a8 c8 3c cb d7 a9 3c 55 4c 60 3a 95 ec a2 3c
       0.02449455 0.02073278 0.0008556296 0.019888202
000180 9f 6b 2d 3c 67 ec 19 3d 79 06 0e bc 06 ee 59 bc
       0.010584741 0.037578966 -0.008668535 -0.013301378
000190 c3 00 09 3c e0 cc cb 3c e5 71 4f 3c 6f 59 3a 3d
       0.008361998 0.024877965 0.012661432 0.045495447
0001a0 8e 52 5b 3c b8 02 d0 3c 89 2a f3 3c 0e 4a b7 3c
       0.013386382 0.025391921 0.029683368 0.02237418
0001b0 1a b0 62 3c 0a db 2a bd 35 fe ff 3c 48 4f a3 3c
       0.013835931 -0.0417128 0.031249145 0.019935265
0001c0 e3 30 bc 3c 73 4a b3 3b ef af 20 3d 77 de e6 3a
       0.02297253 0.0054715215 0.039230283 0.0017613907
0001d0 0b 19 2e bc d5 81 1c 3d 27 a1 ce 3c bf 37 60 3c
       -0.010626088 0.038209755 0.025223328 0.013685166
0001e0 c6 20 82 3c e2 a6 bf 3c ff 0c c8 3b 07 10 85 3c
       0.015884768 0.023395006 0.006105065 0.016242994
0001f0 00 bf 87 bc 87 9c e8 3b 6b 0c 3e bb 4a 57 12 3b
       -0.016570568 0.0070987376 -0.00289991 0.002232986
000200 64 00 91 3c 8e 7f 02 3c 6a f4 b9 bc 14 4f 2f 3c
       0.017700382 0.007964982 -0.022699554 0.010700006
000210 20 47 9b 3c 7a e7 2a 3c 72 c2 84 3c a9 aa 13 3c
       0.018954813 0.010431165 0.016206 0.0090128565
000220 5d 29 9a bb 1a a1 09 ba 4d 45 cb 3c 25 e2 1c 3c
       -0.004704638 -0.0005250141 0.024813319 0.009575401
000230 58 14 76 b9 07 34 2b ba ff 87 fc 3c 4c f0 81 3c
       -0.00023467967 -0.0006530885 0.030826567 0.015861653
000240 83 1f 96 3c 20 f7 15 b8 68 b7 b2 3c 09 e9 6c 3c
       0.018325573 -3.575452e-05 0.02181597 0.014459857
000250 7e 9f 92 3c 2d 2b 9d 3c 11 e8 c4 3c c1 7b da 3c
       0.017898317 0.019185627 0.02403644 0.026670339
000260 ab cd a9 3c 9b 7b 51 3d aa 3f 39 3d fd b9 2d 3c
       0.020727953 0.05114327 0.04522673 0.010603425
000270 6a b0 95 3c 17 7b 3b 3c 5e a4 79 3c 5d 9f bd 3c
       0.018272597 0.011442921 0.015236942 0.02314728
000280 a9 b5 e3 b9 9b 53 5d 3c 24 7a 81 bc 59 85 9e 3c
       -0.0004343216 0.013508703 -0.015805312 0.019350694
000290 1a fc 33 3c 1a be 73 ba 39 71 33 3d 0b d2 e2 3c
       0.010985399 -0.00092980417 0.04380915 0.027688047
0002a0 06 55 c9 3c 7e 1d ab 3c cc f5 d7 3c bb 41 5e 3c
       0.024576675 0.020888086 0.026362322 0.013565476
0002b0 f7 81 f3 bb 4d 16 99 3c 40 97 16 3b 72 85 79 ba
       -0.0074312645 0.018687392 0.0022978336 -0.0009518481
0002c0 a5 2b bb 3c 9b 11 07 3d 01 c2 e7 3c f4 34 47 3d
       0.02284796 0.032975774 0.02829075 0.048634484
0002d0 0d 16 3b 3c 77 d9 a7 ba 3f 4b 45 3c c3 e6 4a 3c
       0.011418832 -0.0012805898 0.012041866 0.012384119
0002e0 04 ad aa 3c 72 83 e3 3c bf b0 f7 3c af 47 02 3c
       0.020834453 0.027772639 0.030235646 0.007951661
0002f0 37 20 63 3c 17 0a b5 3c dc 39 bf 3c 21 85 48 bc
       0.013862661 0.022099538 0.02334302 -0.012238772
000300 7d aa df 3c 23 9f 8e 3c ed 56 cf 3c c6 a8 29 3b
       0.027302975 0.017409867 0.025310004 0.002588795
000310 66 54 82 3c 93 13 b6 3a dd 8c c5 3b 19 4a 8d 3b
       0.015909385 0.0013891332 0.006028755 0.0043118116
000320 74 b9 39 3c 30 78 c9 3c b3 dd 83 bb bc 4e d7 bb
       0.011335719 0.024593443 -0.0040242313 -0.006570665
000330 7a 3b 3b 3d 8f f9 d4 3c dc 0c 28 3c 4b 2c 32 3c
       0.04571102 0.025997905 0.010256972 0.010874818
000340 56 f0 53 3b 15 47 ee 3c 4c cc ba 3b 00 8a a6 3c
       0.0032339296 0.029086629 0.0057006236 0.020329475
000350 3b 65 f4 b9 5d 33 97 bb 9f 4d 0a 3c 28 07 61 3c
       -0.0004661473 -0.0046142773 0.008441358 0.013734616
000360 f4 9e 06 3c c5 f0 2e bb 26 d8 e0 3c fc 53 54 3c
       0.008216608 -0.0026693803 0.027446818 0.012959477
000370 bf 74 5c 3b 31 ec 96 3c 8e a1 d5 3c 11 50 7f 3c
       0.0033638922 0.018423172 0.026078012 0.015583054
000380 73 c0 76 3c 1b 9d 9d 3c 78 92 85 3c e1 35 99 3c
       0.015060532 0.019239953 0.016305193 0.01870245
000390 7b 71 c1 3b 93 7d 9f 3c 92 8d 01 3d 06 a1 75 3c
       0.0059034205 0.019469058 0.031629153 0.014992004
0003a0 b1 d3 3f 3b eb 52 c2 3b f9 0d 05 3d 12 0c 4d 3c
       0.0029270465 0.0059302947 0.03248403 0.012515085
0003b0 89 5b 2f 3c 34 3a 4c 3c 6d 20 aa ba 1f 91 96 bc
       0.010702976 0.012465049 -0.0012979634 -0.018379746
0003c0 a5 87 07 3c 3d e6 a9 3c 5a f7 ba 3c 1b e1 c5 3c
       0.008272086 0.020739669 0.022823025 0.02415519
0003d0 a3 97 f6 3c 3a e8 3a bb 2f 59 44 3c 5a 0a a6 3a
       0.030101603 -0.0028519765 0.011984154 0.001266788
0003e0 35 1d 51 3d 26 52 cf bb 3d 5d ba 3b 85 2a 08 3d
       0.051053245 -0.0063269315 0.0056873844 0.033243675
0003f0 f5 73 bd 3c 8b fd dd 3b b8 e3 91 3c 8d 50 e2 3b
       0.023126582 0.0067746094 0.01780878 0.006906575

linear3.weight f4 [1, 256]
000000 79 73 98 3e 22 10 9b be fc d8 ea 3e 6d e5 b7 be
       0.297756 -0.30285746 0.4586867 -0.35917225
000010 bb e8 db be 59 c7 82 3e 1d 28 bf be 41 c0 80 be
       -0.42950997 0.25542715 -0.37335292 -0.25146678
000020 44 ef ad 3e 9a e7 b0 3e 38 a6 b6 be 3f 7a 97 3e
       0.33971608 0.34551698 -0.3567369 0.29585454
000030 8b 32 cf be 9c 32 0b bf 0d 17 ff be 7d ca 90 be
       -0.4046825 -0.543741 -0.49822274 -0.28279486
000040 be 08 d9 be d2 7f 98 be d6 cc 59 be 3e a0 ad be
       -0.42389482 -0.2978502 -0.21269545 -0.33911318
000050 2b 16 c7 3e 8c 31 c4 be 8d d1 c8 bd ef c7 64 3e
       0.388841 -0.3831905 -0.09805594 0.22341894
000060 f3 c8 c9 be a6 65 1e bf 2b 09 9d 3e 95 86 54 be
       -0.39411125 -0.61873853 0.30671057 -0.20754464
000070 4c 2c ca 3e 34 30 75 3e 80 57 db be bd e9 01 bf
       0.3948692 0.2394417 -0.42840195 -0.5074728
000080 9a 8e a0 3e fd be d0 3e c9 7d 25 bf 34 32 3d be
       0.31358796 0.40770712 -0.6464506 -0.18476182
000090 5d 4c a4 3e a3 fd b0 3e 7e 57 7c be 12 20 00 be
       0.3208951 0.3456851 -0.2464275 -0.12512234
0000a0 0c 4d 5e be 4f 84 e5 be 7f d4 00 3f e9 69 73 3e
       -0.21709079 -0.44827506 0.50324243 0.2377087
0000b0 ec 98 00 bf fe e3 b6 3e d4 58 b8 be 89 a0 ad 3e
       -0.5023334 0.3572082 -0.3600527 0.3391154
0000c0 01 9a fa be 0f 56 b0 3e 85 28 57 be 8b 53 27 3f
       -0.4894562 0.34440657 -0.2101155 0.6536185
0000d0 91 82 a8 3e 0d 1d c8 3e c4 59 c7 be 3e 59 32 bf
       0.32912114 0.39084664 -0.38935673 -0.6966742
0000e0 57 c2 f0 be d2 36 84 be 95 b8 4a be 8a cc 63 3e
       -0.4702327 -0.25823075 -0.19796975 0.22245994
0000f0 e9 7c 23 3e 85 97 30 be 37 ed ab be 3f d7 ca 3e
       0.15965618 -0.172453 -0.33579418 0.39617345
000100 d7 1f 8f 3e 87 88 90 3e ee 71 0e 3f 04 c7 94 be
       0.2795398 0.28229162 0.5564259 -0.29058087
000110 47 64 ea be cc 0d 9b be f1 a7 8c be 4b 3e d2 be
       -0.4577963 -0.30283964 -0.2747188 -0.4106315
000120 21 4e 09 bf 48 16 d0 be 0f b4 78 be 5a af 17 3e
       -0.5363484 -0.40642 -0.24287437 0.14812985
000130 e3 81 b8 be 74 3b 16 bf 07 0a 5b be d4 3c a1 be
       -0.36036596 -0.5868447 -0.21390544 -0.3149172
000140 d6 a4 8d be a4 ee bf be a9 c3 0e 3f 82 9c 93 be
       -0.27664822 -0.37486756 0.55767304 -0.28830343
000150 71 67 c1 be 9e 7c 09 3f 39 e4 92 3e 3d ea b8 3e
       -0.37774232 0.53705776 0.28689745 0.3611621
000160 c1 c3 85 3e 95 02 74 3e 80 c6 9e be 65 1e bb be
       0.2612591 0.2382911 -0.31010818 -0.36546627
000170 60 72 36 3f 5e 97 45 3e 8a 35 ab 3e 26 b6 a1 be
       0.7126827 0.19296023 0.33439285 -0.3158428
000180 eb 75 08 3f 16 df ab be 51 83 d1 be e1 44 54 3e
       0.5330493 -0.3356864 -0.409205 0.207294
000190 8d 15 7f be c9 f4 ab 3e ba 55 5c be 8b fc 96 3e
       -0.24910565 0.33585194 -0.21517077 0.2948955
0001a0 a7 ef 2e 3e f4 a8 c1 3e d2 49 dd 3e 6f d0 f9 3e
       0.17083608 0.37824214 0.43220383 0.48791835
0001b0 69 2f 2d 3e e7 c1 08 3f eb 41 da be 7c 3e c4 3e
       0.16912617 0.5342087 -0.42628416 0.38328922
0001c0 4e 8b 34 be c2 66 a7 3e a5 d4 b5 be 84 00 eb 3e
       -0.17631266 0.32695585 -0.35513797 0.4589883
0001d0 ea e4 61 3e cd 98 04 bf 74 a5 b4 be b8 14 a4 be
       0.2205998 -0.51795655 -0.3528248 -0.32047057
0001e0 af 70 82 be dd 5a be be ab e9 25 3e 21 1b 1a be
       -0.25476596 -0.37178698 0.16202419 -0.15049411
0001f0 81 6e 2c 3f ce 31 bc be 34 14 a2 be 99 5c c5 3e
       0.67356116 -0.36756748 -0.3165604 0.3854721
000200 0d 0a f4 be 10 c3 cf be e2 95 d9 3e eb 0c 38 be
       -0.47663918 -0.40578508 0.42497164 -0.17973678
000210 45 c6 68 be 06 9c d5 be 0e f9 9a 3e b4 bc 5c be
       -0.22731884 -0.417206 0.3026814 -0.2155636
000220 4c df 98 3e a0 f0 75 3e 3a 3d 01 bf 97 fb 02 3f
       0.29857862 0.24017572 -0.5048405 0.51165146
000230 48 1c 73 be 3d 45 80 3e 08 36 c3 3e ca 06 d3 3e
       -0.23741257 0.25052825 0.3812716 0.41216117
000240 f5 fa 58 3e 23 a5 56 be 56 77 5b be 18 6b 89 be
       0.21189483 -0.20961432 -0.21432242 -0.2683952
000250 ed 78 a8 be 39 10 c7 be d8 b7 33 3f 82 80 07 bf
       -0.3290476 -0.38879564 0.702024 -0.5293046
000260 e5 b7 40 be 3d c2 8d be 05 73 21 bf b4 32 47 be
       -0.1882015 -0.27687255 -0.6306613 -0.19452935
000270 36 00 bf be b7 30 38 be af 46 e6 3e 7e 44 d5 3e
       -0.37304848 -0.17987333 0.44975802 0.41653818
000280 f0 75 2e 3e 12 6b 4e be ca 0b 18 3f 86 46 8c 3e
       0.17037177 -0.20158032 0.5939299 0.27397555
000290 7c a8 d5 be a5 1c cc be 79 d2 c0 be f7 c7 9f 3e
       -0.41730106 -0.39865604 -0.37660578 0.3120725
0002a0 42 34 83 be 91 95 9e be 7c f3 94 3e 92 1c 6a 3e
       -0.25625807 -0.30973485 0.29092014 0.22862461
0002b0 2c b9 d6 3e 9d 44 77 3e f5 02 dd 3e 3c db 83 3e
       0.4193815 0.24147268 0.4316632 0.257532
0002c0 d6 2b d2 be 82 f1 97 be d6 51 be be c4 c8 f3 3e
       -0.4104907 -0.29676443 -0.3717181 0.4761411
0002d0 7f a1 99 be 5f ad a5 3e 88 e4 22 bf 75 91 e1 3e
       -0.30006024 0.32358834 -0.6362996 0.44056287
0002e0 27 8a b8 be 35 30 cf 3e ba ba 04 bf 4a e5 e8 be
       -0.36042902 0.40466467 -0.5184742 -0.45487434
0002f0 dc 61 fd bd a1 55 9b be a1 cb ff be 76 dd 82 3e
       -0.12372181 -0.30338767 -0.49960044 0.25559586
000300 e2 16 af be b2 cd 6f be 0f 46 a8 3e 08 4f 63 3e
       -0.34197146 -0.2341831 0.3286595 0.22198117
000310 5f 7d 81 be b1 dc bf 3e d3 67 72 be 81 8c 36 be
       -0.25290963 0.37473062 -0.23672418 -0.17827035
000320 7f f1 00 be 9d 0c 4f 3e 84 5b 5b 3e 95 15 b2 be
       -0.12592123 0.20219655 0.21421629 -0.3478209
000330 da f0 c5 3e e7 c9 82 3e e6 e0 ad 3e fe d4 ac be
       0.38660318 0.25544664 0.33960646 -0.3375625
000340 8a 7b 22 be 64 e8 d6 3e 9a ca c2 be bf 35 87 3e
       -0.15867439 0.41974175 -0.38045198 0.26408193
000350 4c 5b 95 3e ec 51 8a 3e 97 81 53 3e 5f 5e 14 3f
       0.29171216 0.27015626 0.20654903 0.579565
000360 3e 2f 50 be 66 fb b1 be 6a be bc be cb be 6b be
       -0.20330521 -0.34762114 -0.36864024 -0.23022
000370 06 f4 68 3e 9c d4 c1 be 0a 6f 87 3e 0f d3 8b 3e
       0.22749338 -0.3785752 0.26451904 0.27309462
000380 61 c2 9f be da af 53 3e f3 cf bb 3e 67 e5 22 be
       -0.31202987 0.20672551 0.3668209 -0.15907823
000390 ea 6e 4e 3e a6 78 a7 be 8b c4 09 3f c3 bb 66 be
       0.20159498 -0.32709235 0.53815526 -0.22532563
0003a0 4a 9f bd 3e 81 13 96 3e 8d 4c 07 bf e8 52 df bd
       0.3703559 0.29311755 -0.5285118 -0.10904485
0003b0 04 22 90 3e 87 b1 a6 be e9 a1 8c 3e f5 ae 13 3f
       0.28150952 -0.32557318 0.27467278 0.5768884
0003c0 74 60 9e be 71 fc da be 74 2f f2 be 53 5f cf be
       -0.30932963 -0.42770723 -0.4730183 -0.40502414
0003d0 9b 14 c7 3e c7 10 86 3e 95 83 a8 be 85 c7 0e bf
       0.38882908 0.26184675 -0.3291289 -0.5577319
0003e0 fe 78 5b be e8 fb 87 3e 42 51 e8 be 12 29 83 be
       -0.21432874 0.26559377 -0.45374495 -0.25617272
0003f0 54 c6 35 be 8e fc aa be 19 d0 e4 be 93 9d aa be
       -0.17751437 -0.3339581 -0.44690016 -0.33323345

linear4.weight f4 [256, 67]
000000 45 48 33 bd 04 d2 b3 bc 39 61 bb 3c aa 95 93 bd
       -0.043770093 -0.02195073 0.022873508 -0.072062805
000010 b6 fa 47 be 2f 12 e9 3d c6 2d 16 3e 21 d8 68 3d
       -0.19529232 0.11380421 0.14665899 0.05684674
000020 ba 24 53 bd ed eb 62 bd 1e 09 cc bd fa d8 aa bd
       -0.051548697 -0.055400778 -0.099626765 -0.08342166
000030 9c 7e 43 3e e8 23 1a 3d 92 09 0c bd 47 82 10 3e
       0.19091266 0.0376319 -0.034188814 0.14112197
000040 06 69 1d bd 35 ae 22 be bd ed b2 bd dc f4 b2 3d
       -0.038430236 -0.15886767 -0.08736751 0.087381095
000050 5d df ca bd a0 5a 92 3d 15 45 80 3d c9 8c 2e be
       -0.099058844 0.071461916 0.06263176 -0.17045893
000060 c1 94 28 be 5e 9b 60 3d 52 34 3a bd 0d ec e5 bd
       -0.16462995 0.05483567 -0.045460053 -0.11226664
000070 d6 bc 54 3d f2 ca 55 3d 44 a7 8a 3d 28 40 92 bc
       0.0519379 0.052195497 0.06770185 -0.017852858
000080 44 30 06 be 3a 61 b6 bd dc 99 a1 3d 9c f4 19 be
       -0.1310435 -0.08905263 0.078906745 -0.15034717
000090 52 bc df 3d 9e b9 a9 bd 03 51 2e 3e 38 4c 17 be
       0.10924591 -0.08287357 0.17023091 -0.14775169
0000a0 43 0a 87 3d 5e 14 11 be c3 c6 48 3e 71 51 53 3c
       0.06593754 -0.14167926 0.19607072 0.012897835
0000b0 24 64 0f 3e bd f2 3f 3d c6 a0 1b be ae 7a 59 bc
       0.14003044 0.046862353 -0.15198049 -0.013273878
0000c0 79 82 e7 3d 68 97 b0 bc 4c 74 2c bd c2 7b ca 3d
       0.113041826 -0.021556571 -0.042103097 0.09886886
0000d0 ce 2f 70 3d 3b c0 9f 3d 65 3d 98 be 4c f8 d1 3d
       0.05863934 0.07800337 -0.2973434 0.10252437
0000e0 84 e8 03 be fc 3c 2f be fe e0 59 3d 04 7f 22 be
       -0.12881666 -0.17113107 0.053193085 -0.15868765
0000f0 55 12 c6 3d 7a 01 ba 3d 8d db 2a 3d a8 08 01 be
       0.09671465 0.09082313 0.041713286 -0.12600958
000100 ff 97 23 3d 13 82 d9 bd 89 7c 37 3e ba 80 04 3e
       0.039939877 -0.10620513 0.179186 0.1293973
000110 35 b6 a2 3d 9c 9a 12 bd 9d 81 2f 3e 94 29 c6 bd
       0.079449095 -0.03579198 0.17139287 -0.09675899
000120 27 f0 05 be 3a 56 9b bd 3b 03 4e bd 4f 0f b2 3c
       -0.13079892 -0.07584806 -0.05029605 0.021735815
000130 96 ad 7c be 15 cd 32 3d 22 19 1f 3c 0d 86 70 3d
       -0.24675593 0.043652613 0.009710582 0.05872159
000140 eb fc 18 be 23 71 97 bd e0 9b 8c 3e 5d f8 5b 3d
       -0.1494023 -0.07394626 0.27462673 0.053703655
000150 38 76 30 be 5e e5 a2 3d 50 d0 5f 3e 06 64 04 bc
       -0.17232597 0.079539046 0.21856809 -0.008080488
000160 af d5 ab 3d 3c 3a 34 bd 0e 07 9c bd 4c 03 7a 3d
       0.08390366 -0.04400085 -0.07618533 0.0610383
000170 60 98 d7 3d c6 10 4d be 93 42 0c bd bb 85 57 3e
       0.1052711 -0.2002593 -0.034243178 0.21047108
000180 6c a3 36 be 3c e3 a4 bb 64 a9 d9 3d 8a 83 47 3d
       -0.17835778 -0.0050319713 0.10628012 0.04870943
000190 56 4a e0 3d ab 51 d9 3c b1 1d 23 be 81 e4 f9 3d
       0.109516785 0.0265282 -0.15929295 0.12201787
0001a0 67 fd 1d 3b 2c f6 2d be 50 f0 39 3e 82 b4 cc 3d
       0.0024107338 -0.16988438 0.18158078 0.09995367
0001b0 8b 30 a2 3c 0d 15 06 bd 7b ec 31 3e 78 87 09 3e
       0.019798538 -0.03273492 0.17375366 0.13430583
0001c0 b0 d5 05 be 50 de be 3d 6a 7e cc bd 3d af 08 be
       -0.13069797 0.093197465 -0.09985049 -0.13348098
0001d0 27 d8 92 bd 60 60 b4 bd fc 2d 5e 3e de 9f 71 bd
       -0.07170134 -0.088074446 0.21697229 -0.05899035
0001e0 2a dd 11 bc 30 9b 69 bd bd 62 23 3e ef 83 5c bd
       -0.008902827 -0.057032764 0.15955634 -0.05383676
0001f0 f2 e5 88 bd c4 c5 ff 3d 28 72 7e 3d 88 0f 8a 3d
       -0.066844836 0.12488893 0.062120587 0.067412436
000200 22 1e a7 3d 73 8f c1 3d 4f bc 30 be 53 ee 50 3c
       0.08160044 0.09451189 -0.17259334 0.012752133
000210 38 0c 6b 3d 13 ca 20 3e da 70 16 be 3d e5 a5 3c
       0.0573847 0.15702085 -0.14691487 0.02025091
000220 2d 07 10 be b8 34 19 3e 58 17 79 3c 30 48 58 3c
       -0.14065237 0.14961517 0.0152033195 0.013200805
000230 ed 10 17 be 4e 43 5b bc 3f 88 cc 3d c2 1f d7 bc
       -0.1475255 -0.013382746 0.099869244 -0.02626026
000240 ee 09 23 3e b9 7e ae bb 91 10 29 3e 32 a4 1b 3e
       0.15921757 -0.005325165 0.16510226 0.15199354
000250 db ec 35 be 5d 41 ad bd 92 e6 f3 3c 24 8a 44 3e
       -0.17766134 -0.08459733 0.02977303 0.19193321
000260 0c 0c 82 bd 14 69 10 3e 2c 4a 45 bd 76 9c 64 bd
       -0.06349954 0.14102584 -0.04816644 -0.055813275
000270 45 0c f5 3d e0 f3 93 3d d7 60 2a be 41 03 9f bd
       0.11965231 0.0722425 -0.16638504 -0.077642925
000280 fb 03 f7 3d 76 74 1c 3d 0d 13 94 bc 15 3a 47 be
       0.12061306 0.038197003 -0.01807549 -0.1945575
000290 45 3b 60 be eb 0f 27 bb 60 c0 80 be a5 f6 38 3d
       -0.2189761 -0.0025491666 -0.2514677 0.045157094
0002a0 ff 22 7c 3d 04 4e 3d 3e 37 d4 1a 3e e0 02 68 3d
       0.061556812 0.18486792 0.15120016 0.056643367
0002b0 cd 94 9f 3d 0a ff 1d 3c a1 8a c5 bd 57 3f 06 3d
       0.07792053 0.009643326 -0.09645582 0.03277525
0002c0 fa 81 05 3e f4 93 9e 3b 09 c9 d2 bd d1 2c ac bd
       0.13037863 0.0048394147 -0.10292251 -0.084069856
0002d0 37 84 87 3d b3 45 4b 3e 52 70 1a 3d f9 70 36 bd
       0.06617015 0.19850807 0.037704773 -0.044541333
0002e0 31 b6 fb 3c e6 86 b7 3c b3 ef 0b 3c 46 d4 0a bd
       0.030726524 0.022403192 0.0085410355 -0.033893846
0002f0 08 bb 32 3e 7e 6c 0a bb 3c f4 ba 3c 42 5f e8 bd
       0.1745416 -0.0021121795 0.022821538 -0.11346294
000300 25 10 90 3d 68 ac 3b 3e 3e 65 70 be e7 67 12 3e
       0.07034329 0.18327487 -0.23476121 0.14297448
000310 ff ed 33 3b c0 9d c0 3d b6 8a 1d 3d 5c 19 4b bd
       0.002745509 0.094050884 0.038462363 -0.04958473
000320 46 fd 1a 3d 6d c7 21 3d ea 63 2e 3d 14 fe 88 3d
       0.037839197 0.039496828 0.042575754 0.066890866
000330 5b ef 87 bd 41 c3 c9 bd 21 42 70 3e 5c cc cf bb
       -0.0663745 -0.09851695 0.23462726 -0.0063415
000340 8d e0 ff bd 96 02 9a 3b 0e 4a b3 bd 79 09 da 3c
       -0.124940015 0.0047000153 -0.08754359 0.026615845
000350 90 13 8f 3d dc 42 8b bc ae 6f fe bc b6 cc 07 be
       0.06986153 -0.016999654 -0.031059112 -0.13261685
000360 d6 23 33 3e 92 b9 b0 3d c8 2a b1 bd 28 b5 95 3d
       0.17494139 0.08629145 -0.08650738 0.073099434
000370 79 b9 ba 3d f7 09 c3 3d f8 b1 d6 bd fd a3 60 be
       0.09117407 0.09523385 -0.104831636 -0.21937557
000380 94 8d e6 bc cc 85 28 bd a0 8d 09 bd 84 97 78 bc
       -0.028143682 -0.041143224 -0.03358233 -0.015172843
000390 70 37 8d 3e e9 7b 84 3d 15 10 33 3d 99 d2 29 bc
       0.27581358 0.064689465 0.04371651 -0.010365152
0003a0 ab 68 fc bd f9 62 27 3c ae 9d 77 bd d0 5a 24 3d
       -0.12324651 0.010216468 -0.06045311 0.040125668
0003b0 b3 2d f0 bd a7 58 eb 3c 65 bb 39 3e 88 ad 3b 3e
       -0.117274664 0.028728796 0.18137892 0.18327916
0003c0 43 f4 3d 3e 4a a8 0b 3e 77 90 48 3c 97 6f 36 be
       0.1855021 0.13638416 0.012241474 -0.17816006
0003d0 06 0a 93 bd c1 45 8c 3d 7c 91 ab 3d a6 88 0c be
       -0.07179646 0.06849242 0.08377358 -0.13724002
0003e0 82 81 e4 3c 2e 12 57 3d f5 d1 a6 3d 99 0a 12 3e
       0.027893785 0.052507572 0.08145515 0.14261855
0003f0 a3 58 4f bd 35 37 89 3d 1b 8e 10 be a3 6d 86 bb
       -0.05062164 0.06699983 -0.14116709 -0.004102425

linear4.bias f4 [256]
000000 a6 c3 c6 3c 53 61 5e 3d e6 f7 0c 3d 90 42 aa bc
       0.024263214 0.054292034 0.034416102 -0.020783693
000010 51 cb 9b bc 80 93 8a 3c dc b0 0a bd 08 00 13 bb
       -0.019017847 0.016916037 -0.033860072 -0.0022430439
000020 a6 e8 74 3d 98 f3 7d bd 90 2d b6 bc cf e1 b1 3c
       0.059792183 -0.061999887 -0.022238523 0.02171412
000030 4c b9 30 bd 35 ff d6 bc 50 58 e2 bc 60 b8 3c bc
       -0.043145463 -0.02624474 -0.027630001 -0.011518568
000040 2e 3f fe bc be c0 31 bc f1 53 8e bc 9d 3a 2c 3c
       -0.031035986 -0.010849176 -0.01737401 0.010512021
000050 b6 95 cc bc bc 34 53 3c 69 03 40 ba 8b bf c2 3c
       -0.024973731 0.012890991 -0.0007324727 0.023772975
000060 5d 0b ad bc f2 00 bc bb f4 76 08 ba af cf 77 bd
       -0.021123582 -0.0057374174 -0.00052057137 -0.060500797
000070 f0 98 05 bc bd a0 80 bc 4c e3 54 3c 4e e2 c3 bc
       -0.008154139 -0.015701646 0.012993645 -0.023911621
000080 f1 79 e1 3c b3 99 d8 3c 62 d2 71 3d f4 43 4e bd
       0.027523967 0.026440477 0.059038527 -0.050357774
000090 b9 ae 8d bc 9f 11 81 3c 3d fa 0b bd 11 b1 95 ba
       -0.017295228 0.015755473 -0.034174193 -0.0011420568
0000a0 ac 61 14 bc 7a 11 e7 bc 9f 74 3f bc fd 68 9f bc
       -0.00905649 -0.028206576 -0.0116855195 -0.019459242
0000b0 79 58 0c 3c be 26 bd 3b 9d 40 1a 3d 88 6f 2e bd
       0.008566015 0.0057724407 0.037659276 -0.042586833
0000c0 d2 f7 19 3c 9b 87 11 bc ff 23 d8 bb ad fa 17 bd
       0.009397464 -0.0088824285 -0.006596088 -0.037104297
0000d0 5d b7 e1 3b c6 f3 4e 3c 1c ee 44 bd c8 90 18 3d
       0.0068883137 0.012631362 -0.04807864 0.03724745
0000e0 af 6b c7 3b ae d8 89 bc 66 93 9d 3b 83 54 97 3b
       0.006085835 -0.016826954 0.004808831 0.004618229
0000f0 cf 84 c3 3b 46 0c 1b bd 3f 22 d3 bb 2b 00 21 3c
       0.0059667598 -0.0378535 -0.0064432914 0.0098267
000100 dc 33 d3 ba ef 36 91 3c c7 68 d0 bc 36 c3 bb 3c
       -0.0016113478 0.01772639 -0.025440587 0.022920232
000110 7e 8b b8 3c 26 26 2a 3c b6 8a 22 bd 7e b7 2e bd
       0.022527453 0.010385072 -0.039683066 -0.04265546
000120 6d 9e 2d bd 41 05 0f bc 29 a2 15 3c 3f 99 1a bd
       -0.042387415 -0.00872928 0.0091329 -0.037743803
000130 d8 03 c5 bb f2 01 8b 3b 24 29 b4 bc ba 1d 21 ba
       -0.006012421 0.0042421753 -0.021992274 -0.0006146092
000140 27 2e e7 3c 08 e6 11 bc b0 fa f7 bc a7 e4 8f 3c
       0.02822025 -0.008904941 -0.030270904 0.017565085
000150 c6 88 4a 3d 3b fc 36 bd 9f 1e b1 3b 1b 1d 58 bc
       0.049446844 -0.04467414 0.0054052616 -0.013190533
000160 1d e6 d1 3c 09 e3 d6 bb 1b 07 23 bd ae f1 03 3a
       0.025622422 -0.0065578264 -0.0398017 0.00050332665
000170 68 05 95 bb 42 9f 6c 3c 80 58 fc 3c 82 e8 7a 3b
       -0.0045477636 0.014442267 0.030803919 0.0038285558
000180 52 b4 8e bb c7 f6 96 3c a2 d1 5e bc 43 a8 c5 3a
       -0.004354992 0.01842822 -0.013599785 0.0015080053
000190 01 ed 15 bc fd 7d ac 3c ef 41 b3 ba e6 14 af 3a
       -0.009150744 0.02105617 -0.0013676266 0.0013357669
0001a0 6d bc 56 3c e4 ac ea 3a 68 93 e6 b7 91 35 b2 bc
       0.013106448 0.0017904309 -2.7486778e-05 -0.021754058
0001b0 c0 8c b3 bc ec a1 37 bd 1a 90 82 bc 92 54 d3 3c
       -0.0219177 -0.044832155 -0.015937854 0.025797162
0001c0 c4 08 1b bd 3b 16 27 bc ea 8f 0f 3b c8 d4 7b bc
       -0.037850156 -0.010198171 0.0021905848 -0.015370555
0001d0 b8 15 e7 3c 5e bc 9e bc 5a ad 08 3d 39 e5 1f bc
       0.028208598 -0.01937693 0.033368446 -0.009759241
0001e0 c1 83 36 bd 80 69 7e bc b3 80 19 3c b2 85 3f 3c
       -0.044559244 -0.015528083 0.009369063 0.01168959
0001f0 27 55 92 bc 9f d0 37 3c 37 e3 e7 3b c4 74 05 bd
       -0.01786287 0.011219173 0.0070766467 -0.03258206
000200 91 28 24 bc 5e d6 9a bc c3 4c 4f bd ab 19 0c 3b
       -0.010019437 -0.018901046 -0.050610315 0.0021377604
000210 89 58 24 3c 5d 0b 29 3c 1a 5d 74 bc 3f 7f 87 bc
       0.010030874 0.010317651 -0.014914775 -0.016540168
000220 5b 3d 87 bc fa 57 68 bc c6 bd 2d 3c b5 82 a5 3c
       -0.016508749 -0.0141811315 0.010604328 0.020203928
000230 a7 4e 3d bd 40 f0 23 bd 71 46 c1 bb 8c 63 e4 3c
       -0.046217587 -0.040024042 -0.00589829 0.027879499
000240 c3 a4 f6 bb 7f e6 ea 3c 1a f1 d7 bc 35 b0 69 bd
       -0.0075269653 0.028674362 -0.026360083 -0.05705281
000250 b2 06 e7 3c 7f 82 1a bd db 60 ab 3b fc 72 28 bc
       0.028201435 -0.037722107 0.005230052 -0.010281321
000260 e9 62 52 3b 9f b5 ac bc 5d 15 00 bd 62 39 22 bc
       0.0032102412 -0.021082697 -0.031270374 -0.009901376
000270 a0 9a 08 bc 02 63 fe 3c b3 50 3d bc ff 42 eb bc
       -0.008337647 0.03105307 -0.011554885 -0.02871847
000280 69 88 c3 bc 43 38 bd bc 01 94 2f bb 4f df 3a bc
       -0.023868756 -0.023098117 -0.0026791098 -0.01140578
000290 11 61 6f bc 1e 9c 2b 3c df 39 b8 3b 75 8e bb b9
       -0.014610545 0.010474233 0.005622133 -0.00035773558
0002a0 74 b1 51 3a cd 14 2c bc da 43 f2 3c cd 25 ab bc
       0.000799916 -0.010503006 0.02957337 -0.020892048
0002b0 e3 de 33 bb 12 24 6b bc b1 72 8e bd c7 34 1d bc
       -0.0027446083 -0.014351862 -0.069554694 -0.009595103
0002c0 30 8a ce 3b 85 8d 50 bc 1b 7a 70 3c 9e b0 37 bc
       0.0063030943 -0.012729053 0.01467755 -0.011211542
0002d0 f0 1e ed bc 16 b3 95 bc ac 58 14 bd b1 a0 95 bc
       -0.028945416 -0.018273871 -0.036217377 -0.0182651
0002e0 fb d3 fb bc ea f7 41 bc c8 ad 73 bc 90 b3 e1 bc
       -0.030740729 -0.0118388925 -0.014872976 -0.027551442
0002f0 86 ca a7 bc 28 6e 1e 3d de c2 ce ba 63 51 96 bc
       -0.020482313 0.038679272 -0.0015774628 -0.018349355
000300 fe 31 57 bc d1 2b 8e 3c 74 69 07 3d fa 4f f9 3c
       -0.013134478 0.017354878 0.033059552 0.030433644
000310 4b 28 98 3c 42 24 40 bc 2b a4 3a bc 92 66 96 3c
       0.0185739 -0.011727395 -0.01139168 0.018359456
000320 c3 bc cb 3b 45 52 04 bc 03 d1 86 3c f6 29 e6 bb
       0.0062175705 -0.008076255 0.016457086 -0.007024045
000330 fb 8c e7 bc 79 fd c4 bb 81 f7 1a bd 77 c4 f0 3c
       -0.028265467 -0.0060116616 -0.037833694 0.029390557
000340 10 10 a1 bc 46 e9 3e 3c 6e 26 01 bc 34 55 f0 bc
       -0.01966098 0.011652296 -0.0078826975 -0.029337503
000350 d4 7d a0 3c 68 43 c8 3c ab 01 86 3c e6 49 a2 3c
       0.01959125 0.024446204 0.016358217 0.019810628
000360 98 d5 8c bb 56 7c 52 bc 34 d2 28 bd 9f c7 f5 3b
       -0.0042979233 -0.012847027 -0.04121609 0.0075006033
000370 a0 99 cb 3c f8 a6 8c 3c aa 5b 03 3c f9 84 ef 3c
       0.024853528 0.01716946 0.00801746 0.029238211
000380 26 e5 8c bc 30 61 19 bc a3 84 67 bb 6a a6 a4 3c
       -0.01719911 -0.00936155 -0.003532686 0.020098884
000390 f2 a2 04 bd 69 23 1f bd df d3 ef 3b bd 70 bd 3c
       -0.03238196 -0.03885213 0.007318958 0.023125047
0003a0 a2 8f 83 3c 54 e8 a9 bc 25 90 0f bb cd 85 c0 3a
       0.0160597 -0.020740665 -0.0021905985 0.0014688313
0003b0 7f 1d 86 bc d5 71 d1 bb aa 90 a4 bc 96 56 cf bc
       -0.016371487 -0.0063917437 -0.020088512 -0.025309842
0003c0 2a d0 b0 bb 0f b3 46 bd b1 46 0a bd e1 fe 41 bd
       -0.005395909 -0.048510607 -0.033758823 -0.047362212
0003d0 b5 a1 f5 bb 50 0f 51 bd 99 45 f3 3c 8f 13 5e 3c
       -0.0074960836 -0.051039994 0.029696273 0.013554468
0003e0 f5 57 9e 39 6b b3 07 3c 28 23 1c bc 85 a9 18 3d
       0.00030201641 0.008282523 -0.009529866 0.03727104
0003f0 0f 9c f6 bc d6 19 9f bb 96 be c8 ba b0 c6 88 bc
       -0.030103711 -0.004855375 -0.0015315588 -0.016696304
