ModelParams/sac_actor.pth (torch_old, 337386 bytes, 8 tensors)

linear1.weight f4 [256, 64]
-0.11394822 -0.10779814 -0.076058924 0.0005804223 -0.033243757 -0.017092172 -0.017783057 0.106550425
0.062035233 -0.014609772 -0.11108222 0.010866297 -0.0054363725 -0.065958306 -0.15018216 -0.085330054
0.03803095 0.043017387 -0.10728498 0.07155684 -0.09083188 -0.09875229 -0.12413348 0.1307468
-0.098928355 -0.058525227 0.019429537 0.17379206 -0.116603166 -0.098232485 0.09704181 -0.0023162744
-0.0013150341 0.078288585 -0.059814185 0.08772719 -0.03238881 0.12056752 0.13302991 -0.05562581
0.1325265 0.12438392 0.067187674 -0.12676246 0.05022627 -0.10440041 -0.06351573 -0.009469645
-0.14394729 -0.056286782 -0.07465941 -0.14836486 -0.06642481 -0.019000633 0.037939917 0.0043099774
-0.12688123 0.13257082 0.09899454 0.01594709 0.095403604 0.14803815 -0.106404886 -0.08927824
0.03884538 -0.003086278 -0.02525986 -0.071761005 -0.054841485 0.10795928 -0.07161459 -0.025577584
0.04102695 0.034158546 0.058474846 0.091917895 -0.04290653 -0.12755227 -0.039246418 0.12883931
-0.01843985 0.13041456 0.10496536 -0.053705435 0.017651182 0.1201035 0.04614644 -0.013750967
-0.020085758 0.008147901 -0.05937255 0.03532704 0.0031347424 0.04262625 0.12958033 0.086853676
-0.120177306 -0.1293225 -0.07755705 0.0668531 0.021936106 0.05710417 0.03010039 -0.049071774
-0.06042846 0.15921697 0.011414728 -0.044121012 -0.1331768 0.069027476 -0.08536149 -0.027138148
0.03924351 0.07486388 0.02546528 0.06670465 0.04366417 -0.008278447 0.055227023 -0.10065663
-0.06828948 0.08783529 0.07662944 -0.018094923 -0.032167647 0.14721318 0.04847317 0.051537476
0.11562709 0.061311048 -0.008486458 -0.08392166 -0.012035598 -0.080483794 -0.06361741 -0.066507824
-0.075536 0.10321943 0.040379334 0.07771222 0.030478802 0.107741795 0.018803516 0.1676934
-0.069464475 0.09770207 -0.14661828 0.05821696 0.05943923 -0.019819818 0.11150349 -0.060342122
-0.024974436 0.0919424 -0.027327927 0.01742982 -0.11014679 -0.032602012 0.1384575 -0.05685051
-0.09390384 -0.13841935 0.021968592 -0.10223986 -0.0775981 -0.024423907 -0.049822424 -0.014794702
0.028942747 -0.026978072 -0.06457662 -0.12680294 -0.07426347 0.1269504 -0.014190632 -0.0556446
-0.013748074 -0.07824607 0.019010909 -0.05980136 0.15712713 -0.07324647 -0.06316166 -0.11506795
-0.012871541 -0.06844638 -0.10992983 -0.1238509 0.09364489 -0.06873774 -0.101781845 -0.119835995
-0.053316936 0.07764214 -0.0025153237 -0.03036181 -0.1198961 -0.018900907 0.020329885 -0.0542613
-0.033273414 0.028032828 0.1880658 -0.006830173 -0.0047012027 -0.036929507 -0.089969106 0.117114656
-0.05469965 0.05382305 0.08783422 0.07102844 -0.030045392 0.0857679 0.06953254 0.055846363
0.023659559 -0.04723826 -0.054048616 0.050352693 -0.05576262 -0.15084831 0.11832847 -0.0012729791
-0.17872877 -0.07542953 -0.21753968 0.06700156 0.037774097 0.095010795 0.09024278 0.073821135
-0.102909654 -0.008340988 0.096873485 -0.024012446 0.09566766 -0.033882547 0.07035349 -0.053761214
0.036144417 -0.06474922 -0.094913855 -0.055777386 0.045452252 0.09395777 0.04008784 -0.14056192
-0.040322073 -0.009699411 0.0042980826 -0.1241598 -0.05558946 0.13241436 0.023974113 -0.12366729
00000000: af5d e9bd 45c5 dcbd c8c4 9bbd 7b27 183a
00000010: 9b2a 08bd e204 8cbc c6ad 91bc 1c37 da3d
00000020: a818 7e3d d35d 6fbc 137f e3bd 8e08 323c
00000030: 9923 b2bb 2615 87bd 5ac9 19be 86c1 aebd
00000040: 57c6 1b3d 0033 303d 3ab8 dbbd 648c 923d
00000050: 1106 babd a43e cabd b239 febd 7de2 053e
00000060: f39a cabd 26b8 6fbd b12a 9f3c 8cf6 313e
00000070: a4cd eebd 1d2e c9bd dbbd c63d a3cc 17bb
00000080: 395d acba c455 a03d b8ff 74bd 50aa b33d
00000090: 21aa 04bd 1bec f63d fe38 083e e4d7 63bd
000000a0: 07b5 073e ffbc fe3d b199 893d 05ce 01be
000000b0: 10ba 4d3d e2cf d5bd 8914 82bd 9226 1bbc
000000c0: eb66 13be f88c 66bd 08e7 98bd f5ec 17be
000000d0: bb09 88bd 37a7 9bbc e366 1b3d b63a 8d3b
000000e0: 27ed 01be a5c0 073e a6bd ca3d 79a3 823c
000000f0: f762 c33d 5097 173e ceea d9bd 83d7 b6bd
00000100: 551c 1f3d 2743 4abb c4ed cebc 6ff7 92bd
00000110: 77a1 60bd c119 dd3d acaa 92bd 1588 d1bc
00000120: e00b 283d d5e9 0b3d 5283 6f3d 733f bc3d
00000130: c2be 2fbd 109d 02be dac0 20bd 74ee 033e
00000140: 2b0f 97bc 658b 053e 14f8 d63d 3bfa 5bbd
00000150: 3699 903c d3f8 f53d 0d04 3d3d bc4b 61bc
00000160: e38a a4bc c67e 053c a230 73bd 16b3 103d
00000170: 4070 4d3b dd98 2e3d b5b0 043e 57e0 b13d
00000180: 851f f6bd 1e6d 04be 3bd6 9ebd 47ea 883d
00000190: 59b3 b33c 10e6 693d 1895 f63c 7cff 48bd
000001a0: d583 77bd c609 233e d704 3b3c 3cb8 34bd
000001b0: 805f 08be 475e 8d3d 01d2 aebd d250 debc
000001c0: cebd 203d 3c52 993d 909c d03c 739c 883d
000001d0: 33d9 323d 53a2 07bc bb35 623d 1025 cebd
000001e0: 5bdb 8bbd fde2 b33d e5ef 9c3d ce3b 94bc
000001f0: 39c2 03bd 0dbf 163e cd8b 463d f618 533d
00000200: e5cd ec3d 4b21 7b3d c90a 0bbc 1fdf abbd
00000210: f530 45bc b0d4 a4bd d849 82bd 4135 88bd
00000220: 9eb2 9abd b564 d33d cd64 253d 9627 9f3d
00000230: aeae f93c bba7 dc3d d509 9a3c d2b7 2b3e
00000240: 6443 8ebd 0618 c83d 1a23 16be e874 6e3d
00000250: 8d76 733d 2c5d a2bc f15b e43d 4d29 77bd
00000260: 3097 ccbc 4c4c bc3d d1de dfbc fbc8 8e3c
00000270: a494 e1bd b089 05bd cec7 0d3e 15dc 68bd
00000280: a850 c0bd cdbd 0dbe 7af7 b33c 2263 d1bd
00000290: c1eb 9ebd a514 c8bc 9912 4cbd 7a65 72bc
000002a0: 5719 ed3c 1e01 ddbc bf40 84bd a1d8 01be
000002b0: 7217 98bd 49ff 013e d37f 68bc 98eb 63bd
000002c0: 9a3f 61bc 7a3f a0bd c4bc 9b3c 45f2 74bd
000002d0: efe5 203e 3f02 96bd e75a 81bd bfa8 ebbd
000002e0: 28e3 52bc 9e2d 8cbd e422 e1bd 8aa5 fdbd
000002f0: e4c8 bf3d 5fc6 8cbd 0073 d0bd 936c f5bd
00000300: dc62 5abd d802 9f3d 21d8 24bb 55b9 f8bc
00000310: 168c f5bd 13d6 9abc dc8a a63c 1941 5ebd
00000320: b449 08bd 1aa5 e53c 5294 403e a5cf dfbb
00000330: 8c0c 9abb 6543 17bd b941 b8bd cfd9 ef3d
00000340: bd0c 60bd 8f75 5c3d 6de2 b33d 5c77 913d
00000350: c121 f6bc 15a7 af3d 1467 8e3d 28bf 643d
00000360: b1d1 c13c e87c 41bd 1562 5dbd a03e 4e3d
00000370: 5867 64bd fb77 1abe 3256 f23d 17da a6ba
00000380: ad04 37be cc7a 9abd b9c2 5ebe 1d38 893d
00000390: 03b9 1a3d 0595 c23d 35d1 b83d 892f 973d
000003a0: 4cc2 d2bd a4a8 08bc 9b65 c63d c0b5 c4bc
000003b0: 68ed c33d 6dc8 0abd 7e15 903d b834 5cbd
000003c0: 2b0c 143d 3d9b 84bd 3262 c2bd d476 64bd
000003d0: 242c 3a3d ee6c c03d 2633 243d 77ef 0fbe
000003e0: c228 25bd 47ea 1ebc eed6 8c3b 7e47 febd
000003f0: c6b1 63bd a197 073e 5c65 c43c 4745 fdbd

linear1.bias f4 [256]
0.08389592 -0.037658516 0.02095506 -0.013347728 -0.029749844 -0.08158607 0.103684865 0.07966427
-0.02646581 0.09674935 0.010329336 0.05294286 0.12596433 0.04717497 -0.012723413 0.10318761
-0.09473421 0.060887184 -0.06959525 -0.09396828 0.086108156 -0.092208214 -0.026344623 -0.06866855
0.07525691 -0.089617245 -0.03640933 -0.06911997 -0.06401086 -0.041553028 0.07536448 0.17142066
0.07598928 0.0640426 -0.09200576 0.073282845 -0.0014059946 0.10683924 0.01697395 0.056212835
-0.0021185284 0.006186247 0.06779281 0.029267956 -0.099977195 -0.0766493 0.058116287 -0.08180835
0.025298852 0.11045677 -0.052758243 0.055431567 -0.052402917 -0.066583246 -0.089358054 -0.062393293
0.04996321 0.05116547 0.024766287 0.015692752 -0.00602954 0.1276794 -0.0004865439 0.037475042
-0.016852101 -0.025098316 0.10321624 0.06509141 -0.069637015 0.07951103 0.14303447 0.0715871
0.08281748 0.091444574 0.0917521 -0.094391085 -0.019218933 -0.031155458 0.09761005 0.07623772
0.01963755 -0.029893337 0.094567224 0.14248557 -0.045782916 0.09253374 -0.007200778 0.08642848
0.023467168 -0.018991474 0.008954112 -0.04714904 0.1038289 -0.058263972 0.054529592 0.053563446
0.13240188 -0.15142956 0.013784265 0.09622152 -0.008475284 0.06875462 -0.08978088 -0.017382441
0.12554683 0.019787678 -0.011932897 0.062477298 -0.027868625 -0.052693475 0.04015932 -0.06098373
-0.022657128 -0.043744385 -0.05965118 0.04104738 -0.0073084235 -0.03377387 -0.034800407 -0.023266945
-0.07094833 0.086779155 0.037170358 -0.0750325 -0.09997878 0.06526437 -0.051425617 0.029622428
-0.0754901 -0.124726705 0.08609121 -0.050014727 -0.032131966 0.058328934 0.03268398 -0.047701932
0.11804313 0.025862163 -0.05704316 0.003946365 9.141449e-05 -0.01290323 0.02544444 -0.025685992
0.07044047 -0.036452126 0.046514455 -0.0048414716 -0.033462834 0.0147840185 0.06297297 -0.054762624
0.014756168 0.059539396 -0.10168543 0.0026366361 0.02595998 -0.021592448 0.04902222 0.113177344
0.042669933 -0.06912062 0.062265325 -0.0701236 -0.051510286 0.093897454 0.10379448 -0.08741463
-0.06255263 0.114813976 -0.04755629 -0.036543448 0.039536696 -0.0045387554 -0.00012535005 -0.05048168
0.08730067 -0.057094473 0.07537253 0.11893377 0.01940236 0.02071102 0.06962063 0.010588377
-0.023417804 -0.028258912 0.113342054 -0.104539536 -0.020315098 -0.016610315 -0.0023939111 0.032458413
-0.0026096436 -0.044307675 -0.10462494 0.043604948 -0.0013461716 -0.10369391 0.049420115 -0.12012466
0.024413245 -0.04314437 -0.0912196 0.10746753 -0.03926914 0.08782158 -0.03533017 -0.024667785
0.04429869 -0.03148391 0.092715055 -0.0057279225 0.04769312 0.04406882 -0.0069453935 -0.047705274
0.010555846 -0.038635634 0.14373691 0.09349996 -0.122865945 0.040190514 0.020443337 0.03653577
0.005870895 -0.051890306 0.023521887 -0.06562744 0.038143788 -0.015712844 0.06633272 -0.022834793
-0.015916256 0.03159211 0.029462788 -0.07614034 0.04960216 0.0050915144 0.014911875 0.022345772
0.06624701 0.051156845 0.064431004 -0.04579739 0.04758923 -0.10211018 -0.06816471 -0.11069986
-0.03427977 0.06182672 0.021352477 0.054827653 -0.05063162 0.06900794 0.07867282 -0.02111673
00000000: a0d1 ab3d d13f 1abd f2a9 ab3c 6eb0 5abc
00000010: f2b5 f3bc 9916 a7bd bb58 d43d 0527 a33d
00000020: d4ce d8bc 8624 c63d 603c 293c 9dda 583d
00000030: cbfc 003e 8b3a 413d dd75 50bc 0754 d33d
00000040: 0204 c2bd d764 793d f487 8ebd 7172 c0bd
00000050: 7959 b03d a9d7 bcbd aed0 d7bc 19a2 8cbd
00000060: 4b20 9a3d 3f89 b7bd f321 15bd c58e 8dbd
00000070: 2018 83bd 8233 2abd b158 9a3d e688 2f3e
00000080: 45a0 9b3d c428 833d 846d bcbd 5115 963d
00000090: 5a49 b8ba 88ce da3d f40c 8b3c 6e3f 663d
000000a0: 02d7 0abb 00b6 ca3b f5d6 8a3d 5ac3 ef3c
000000b0: d8c0 ccbd 4ffa 9cbd 580b 6e3d 238b a7bd
000000c0: 8a3f cf3c 2937 e23d 0719 58bd 360c 633d
000000d0: 71a4 56bd cc5c 88bd 5b01 b7bd 1c90 7fbd
000000e0: 39a6 4c3d e292 513d abe2 ca3c 168e 803c
000000f0: 7393 c5bb 63be 023e d116 ffb9 6e7f 193d
00000100: 6b0d 8abc fc9a cdbc 0963 d33d a54e 853d
00000110: da9d 8ebd aed6 a23d a177 123e 429c 923d
00000120: 369c a93d 4b47 bb3d 86e8 bb3d 1d50 c1bd
00000130: 0671 9dbc bb39 ffbc c7e7 c73d 8622 9c3d
00000140: edde a03c dfe2 f4bc 76ac c13d bde7 113e
00000150: de86 3bbd 5482 bd3d 81f4 ebbb 6a01 b13d
00000160: 383e c03c 0294 9bbc 45b4 123c 5a1f 41bd
00000170: 3fa4 d43d 34a6 6ebd 6c5a 5f3d 5865 5b3d
00000180: 5c94 073e 5a10 1bbe 66d7 613c ca0f c53d
00000190: ebdb 0abc 39cf 8c3d 0adf b7bd 9f65 8ebc
000001a0: 598f 003e c519 a23c 3382 43bc 32e8 7f3d
000001b0: be4c e4bc 1dd5 57bd 197e 243d 13ca 79bd
000001c0: 719b b9bc 502d 33bd cc54 74bd 4c21 283d
000001d0: 807b efbb 7856 0abd df8a 0ebd 529a bebc
000001e0: 5c4d 91bd 45b9 b13d f23f 183d a4aa 99bd
000001f0: adc1 ccbd 53a9 853d aba3 52bd bcaa f23c
00000200: 8e9a 9abd b770 ffbd 9750 b03d 3edc 4cbd
00000210: cf9c 03bd 52ea 6e3d a3df 053d 1a63 43bd
00000220: 99c0 f13d e3dc d33c 17a6 69bd 8250 813b
00000230: c8b5 bf38 1268 53bc dc70 d03c 6e6b d2bc
00000240: 1843 903d d34e 15bd f185 3e3d 35a5 9ebb
00000250: 5310 09bd ab38 723c f9f7 803d c64e 60bd
00000260: dbc3 713c 95df 733d 7340 d0bd 6acb 2c3b
00000270: 06aa d43c a5e2 b0bc 86cb 483d 86c9 e73d
00000280: abc6 2e3d 1d8f 8dbd ed09 7f3d f69c 8fbd
00000290: 73fc 52bd 4f4d c03d 3392 d43d 7106 b3bd
000002a0: 981b 80bd 9723 eb3d 62ca 42bd 95ae 15bd
000002b0: 3bf1 213d d7b9 94bb 6670 03b9 e1c5 4ebd
000002c0: b2ca b23d e5db 69bd ea5c 9a3d 8c93 f33d
000002d0: b3f1 9e3c 28aa a93c 4395 8e3d df7a 2d3c
000002e0: b2d6 bfbc 3c7f e7bc e11f e83d d318 d6bd
000002f0: d96b a6bc 5b12 88bc 2ae3 1cbb 1df3 043d
00000300: 8e06 2bbb f77b 35bd 9a45 d6bd 1a9b 323d
00000310: 0672 b0ba 795d d4bd bf6c 4a3d eb03 f6bd
00000320: 49fe c73c 27b8 30bd 57d1 babd f017 dc3d
00000330: aed8 20bd cddb b33d 5eb6 10bd 1814 cabc
00000340: 8b72 353d 46f5 00bd 64e1 bd3d 4cb1 bbbb
00000350: dc59 433d 8281 343d 2f96 e3bb 9b66 43bd
00000360: 6df2 2c3c 6640 1ebd c52f 133e e87c bf3d
00000370: 24a1 fbbd cf9e 243d c978 a73c 88a6 153d
00000380: a360 c03b ee8a 54bd f9b0 c03c ae67 86bd
00000390: a93c 1c3d 39b8 80bc 73d9 873d 0810 bbbc
000003a0: cf62 82bc ba66 013d f25b f13c 77ef 9bbd
000003b0: a22b 4b3d b8d6 a63b f050 743c 7b0e b73c
000003c0: 83ac 873d d789 513d 67f4 833d 0b96 3bbd
000003d0: edec 423d 241f d1bd f199 8bbd 9cb6 e2bd
000003e0: f268 0cbd 043e 7d3d 64eb ae3c f692 603d
000003f0: 1a63 4fbd 0954 8d3d 371f a13d fefc acbc

linear2.weight f4 [256, 256]
0.05480697 -0.009017694 0.0023189527 -0.079225086 -0.13380976 -0.075033024 -0.013854104 -0.16788705
0.022068152 0.010218687 -0.033590384 0.05504027 -0.12957412 0.04581502 -0.04430755 -0.03159816
-0.08965005 -0.027799902 0.069970876 -0.035520554 -0.0654875 0.037283484 0.09210556 0.008448578
-0.058617275 -0.039147075 -0.16557576 0.07314861 -0.07866588 -0.17550062 0.057499412 0.039701253
-0.0353448 0.07999789 -0.0130344825 0.10884591 0.071916394 0.107318155 -0.08078657 0.09524897
-0.041036513 -0.17795168 -0.10197257 0.10483543 -0.038745064 -0.008419611 -0.072059296 -0.113230065
-0.0731324 -0.0987024 -0.05490136 0.070486814 -0.0061281533 -0.028631851 -0.042770676 0.033469867
-0.103793666 0.0029431006 -0.009628935 -0.07069394 -0.09244015 0.09119229 -0.020246532 0.022323422
0.079766 0.09290914 -0.15140426 -0.061957233 0.085223235 -0.020386336 -0.10754631 0.061395667
-0.0791786 0.11227236 0.029081495 0.09842739 0.021096379 0.07206867 -0.07296553 -0.024190664
-0.06671573 0.114256136 -0.12111365 -0.08319216 0.060225558 0.027695838 -0.0018590011 0.113323994
-0.09346201 -0.16594365 0.04179207 0.012009322 -0.0116488505 -0.039911605 -0.13289276 0.015036727
-0.12467402 -0.045234304 -0.012347966 0.08900718 -0.042686157 -0.12410837 -0.11127538 -0.006839238
-0.06187539 -0.06386465 0.02370028 0.12053648 0.015377855 -0.0077759465 0.013865878 -0.04880275
0.0027883633 -0.16938461 -0.09420071 -0.017082272 -0.053547934 -0.123684764 0.046664383 -0.035784252
0.04756859 0.09423052 -0.016784476 0.13515742 0.021605767 0.05972947 -0.02281641 -0.06539058
-0.088967666 0.057242453 -0.023720412 0.046436895 -0.0076350886 -0.096471064 0.0717158 0.04355038
-0.07805918 0.026921403 -0.063413754 -0.0018402999 0.0700808 -0.03417766 -0.059286807 -0.14536384
-0.04523075 -0.067813836 -0.007853866 0.031121386 0.0020420507 0.059611 -0.06821923 -0.021629555
0.019492125 0.05450103 -0.055945646 0.032806046 -0.026670275 -0.098232776 0.06636836 0.04507794
-0.0109297745 0.026182536 -0.019498732 0.10476436 0.09604871 -0.045538653 0.10223251 0.14452164
-0.0939649 0.075109154 -0.15256028 -0.028307581 0.061336562 0.0071640345 0.1344635 0.067285605
0.0086972825 0.0014551537 -0.12103236 -0.09905537 0.007086741 -0.029543163 0.026833491 0.06747581
-0.035712384 0.054042425 -0.052835252 -0.078571364 -0.08377952 -0.083913885 -0.01283844 -0.09208914
0.13593249 -0.05668004 -0.12656374 0.02677218 -0.012682541 0.07574131 -0.01102317 0.003809447
-0.10898852 -0.211831 -0.04070456 0.08095964 -0.037971433 0.02441962 0.013355708 -0.10109973
0.056697756 0.018941931 -0.059087727 -0.029776843 0.02944402 -0.12785177 0.108386 0.055618156
-0.1295739 -0.048591573 0.017813252 -0.024324358 0.010776316 0.030259753 -0.043512862 -0.034878604
0.051833853 -0.03278968 -0.0013536237 -0.039011125 -0.018646674 0.06636532 -0.05105236 -0.1146144
-0.08672486 -0.06642141 -0.07710784 -0.13321505 0.06970987 -0.060617138 1.4374627e-05 0.082969494
-0.14214146 0.06459893 -0.09437798 -0.052852977 -0.04946855 0.080498844 -0.09787298 -0.13550982
-0.0103199305 -0.12268535 -0.014139717 0.015620624 0.029582802 -0.02802244 0.03358525 -0.064651825
00000000: 467d 603d f3be 13bc 92f9 173b c340 a2bd
00000010: 6d05 09be eaaa 99bd 53fc 62bc 95ea 2bbe
00000020: 45c8 b43c 486c 273c 1296 09bd e871 613d
00000030: 14af 04be 88a8 3b3d d57b 35bd 126d 01bd
00000040: 729a b7bd 9fbc e3bc e44c 8f3d 007e 11bd
00000050: 4f1e 86bd 91b6 183d d7a1 bc3d e86b 0a3c
00000060: ab18 70bd af58 20bd b18c 29be f0ce 953d
00000070: 941b a1bd 6fb6 33be 8184 6b3d c89d 223d
00000080: b6c5 10bd efd5 a33d 958e 55bc 9bea de3d
00000090: e748 933d 9fc9 db3d 6e73 a5bd e411 c33d
000000a0: e715 28bd f738 36be ffd6 d0bd f5b3 d63d
000000b0: 25b3 1ebd 68f2 09bc d393 93bd 2ae5 e7bd
000000c0: 71c6 95bd 7c24 cabd 40e0 60bd 645b 903d
000000d0: adce c8bb 588d eabc 4e30 2fbd b317 093d
000000e0: c691 d4bd 09e1 403b aec2 1dbc fcc7 90bd
000000f0: 4351 bdbd 06c3 ba3d 0edc a5bc 9cdf b63c
00000100: 5b5c a33d 2647 be3d b809 1bbe dec6 7dbd
00000110: 8589 ae3d 3f01 a7bc 3d41 dcbd 067a 7b3d
00000120: 6428 a2bd 0def e53d 513c ee3c 4d94 c93d
00000130: 50d2 ac3c bd98 933d f46e 95bd 802b c6bc
00000140: 42a2 88bd 1fff e93d 6f0a f8bd a760 aabd
00000150: 13af 763d 62e2 e23c baa9 f3ba 6916 e83d
00000160: 0369 bfbd 22ed 29be 292e 2b3d bfc2 443c
00000170: d2da 3ebc 5a7a 23bd 0a15 08be 9b5c 763c
00000180: 1855 ffbd 9b47 39bd 204f 4abc 6549 b63d
00000190: aed7 2ebd 872c febd 59e4 e3bd b01b e0bb
000001a0: 0d71 7dbd 78cb 82bd 1727 c23c d4db f63d
000001b0: 66f3 7b3c 5ecd febb b52d 633c 64e5 47bd
000001c0: f9bc 363b 2973 2dbe 4dec c0bd 1ff0 8bbc
000001d0: 1455 5bbd 704e fdbd 2723 3f3d 8292 12bd
000001e0: 48d7 423d eefb c03d 997f 89bc b566 0a3e
000001f0: 94fe b03c e4a6 743d 7be9 babc 7feb 85bd
00000200: ae34 b6bd 1077 6a3d 4f51 c2bc 9d34 3e3d
00000210: c42f fabb 9f92 c5bd bcdf 923d e261 323d
00000220: 7edd 9fbd 468a dc3c 12df 81bd 3836 f1ba
00000230: 8686 8f3d e0fd 0bbd b9d6 72bd 42da 14be
00000240: e143 39bd fbe1 8abd 80ad 00bc 47f2 fe3c
00000250: edd3 053b aa2a 743d 86b6 8bbd 7730 b1bc
00000260: f3ad 9f3c 793c 5f3d 4327 65bd a25f 063d
00000270: 9f7b dabc 442e c9bd 22ec 873d a5a3 383d
00000280: cc12 33bc c27c d63c cebb 9fbc b28e d63d
00000290: 30b5 c43d bd86 3abd 475f d13d 7bfd 133e
000002a0: ab70 c0bd d4d2 993d c338 1cbe 4de5 e7bc
000002b0: 0c3c 7b3d 47c0 ea3b cdb0 093e 09cd 893d
000002c0: 0c7f 0e3c dbba be3a d0df f7bd 8bdd cabd
000002d0: e437 e83b 8104 f2bc e9d1 db3c c230 8a3d
000002e0: 2647 12bd 975b 5d3d c769 58bd 06ea a0bd
000002f0: 9994 abbd 0bdb abbd 5258 52bc 3b99 bcbd
00000300: e331 0b3e 5429 68bd ed99 01be 5551 db3c
00000310: 6fca 4fbc 431e 9b3d 879a 34bc eaa7 793b
00000320: 6035 dfbd 3aea 58be d3b9 26bd 2bce a53d
00000330: ef87 1bbd a80b c83c e6d1 5a3c 600d cfbd
00000340: e83b 683d 1c2c 9b3c f905 72bd 91ee f3bc
00000350: 9634 f13c 93eb 02be 7bf9 dd3d ddcf 633d
00000360: 05af 04be f507 47bd 19ed 913c e043 c7bc
00000370: 258f 303c 4de3 f73c 8b3a 32bd dedc 0ebd
00000380: bc4f 543d 794e 06bd 136c b1ba 21ca 1fbd
00000390: e9c0 98bc 8aea 873d 481c 51bd f4ba eabd
000003a0: ce9c b1bd f307 88bd b7ea 9dbd 8769 08be
000003b0: 0cc4 8e3d ad49 78bd 8e2a 7137 e9eb a93d
000003c0: 888d 11be 724c 843d 3e49 c1bd 5d7c 58bd
000003d0: 899f 4abd 94dc a43d a171 c8bd 16c3 0abe
000003e0: ed14 29bc 7542 fbbd 46aa 67bc a5ed 7f3c
000003f0: a257 f23c 518f e5bc b090 093d 2d68 84bd

linear2.bias f4 [256]
0.0062393597 -0.115300454 0.07736762 0.120340034 -0.07387716 0.012663919 0.12353554 0.017278932
-0.04979418 0.043003816 -0.044482388 0.1586107 0.13420446 -0.018140802 0.1353904 0.113063514
-0.018908441 -0.054427974 0.016006947 -0.02027125 0.14069973 -0.04252497 -0.07651313 -0.020742184
0.07738422 -0.08346782 0.025816232 -0.05251142 0.061301168 -0.018997414 -0.034542847 -0.056282554
-0.0361042 0.065338716 -0.039647564 0.084267266 0.05998411 -0.023537291 -0.06736125 -0.04135879
-0.059849393 0.18990895 -0.00587972 -0.02747214 -0.026750175 0.13026164 -0.010100283 0.11187942
-0.041760158 0.009957837 0.18277721 0.11624186 0.046346962 -0.0840987 0.04764917 0.06250087
0.06514415 0.16150634 -0.07795457 -0.038639653 0.043875813 0.11104233 0.15460481 0.15781397
-0.016557144 -0.08632487 -0.02466862 -0.023464993 -0.093608536 -0.070653945 -0.006398472 0.14795265
-0.012096366 -0.013923491 0.039947767 0.052617263 0.0038956902 0.09380118 -0.03938204 0.026275119
-0.052304573 0.062339786 -0.038194254 0.16571952 -0.08755275 -0.07104705 -0.0388207 -0.090210535
0.085289285 -0.0067214584 -0.03355264 -0.07525434 -0.021847747 0.10307617 -0.025937457 -0.008425259
-0.011302877 -0.055147346 0.046399515 -0.029074194 0.103866145 0.072585255 -0.04132809 0.0961519
0.013380105 0.08588892 0.13600655 0.11464469 -0.014705424 0.06548741 -0.011977017 0.10640056
0.002319759 -0.004571626 0.10201641 -0.1493727 -0.057595562 0.046679486 -0.040589646 0.0657002
0.0064414768 0.078072295 -0.031335067 0.09487458 -0.0014261501 -0.043395303 -0.043648772 -0.056628987
-0.051654253 -0.06635639 -0.06410857 0.104509965 -0.110497884 0.13810478 -0.085683465 -0.06876686
0.019366143 -0.04994336 0.06535355 -0.009087852 -0.019040167 -0.045417137 -0.017460275 -0.018006971
-0.040121198 -0.03211193 0.096282154 -0.053606644 0.025794283 0.027819809 0.039762385 0.16308771
0.16478328 -0.05589933 -0.03182367 -0.02350451 0.10580184 0.031832285 -0.034912664 -0.0048766565
-0.03974562 -0.10464849 0.08655592 0.050060667 0.03522086 -0.07646759 0.06710204 -0.054813806
-0.064995036 0.1576386 -0.011559897 -0.08135796 0.03305681 -0.057078913 -0.0040247818 -0.008258914
0.09018183 0.01684528 -0.05048248 -0.1167341 0.04690378 0.013788744 -0.07947982 -0.009194547
-0.0025415123 -0.09363197 -0.0432947 -0.0580876 -0.04527883 -0.02086563 -0.05336207 -0.039859425
0.06983147 0.07199246 -0.06375626 0.19650932 0.09474982 -0.040901244 0.10058265 -0.06350907
0.16596773 -0.014847345 0.02259984 0.062026907 0.013394368 0.11112935 -0.059705224 0.08716168
-0.02754754 -0.04251326 0.11265586 0.023032846 0.013438533 0.04972078 -0.014500089 0.03995399
-0.0037514563 0.033918593 -0.026275856 0.120833814 0.008337622 0.08527524 -0.01871416 0.10997562
-0.1167588 0.15014602 -0.08306311 -0.021812849 0.08521348 0.09873687 -0.04912368 0.030103208
-0.06616729 -0.03950473 0.07083267 -0.051387962 0.09907347 0.10470926 -0.104400836 -0.007829247
0.0067990967 0.04859955 -0.08981774 -0.048894472 0.0023405452 -0.040199585 -0.0054646553 -0.045741245
0.05122348 -0.036811877 -0.025529662 0.06424164 0.11642563 -0.022583527 -0.046298668 -0.016702622
00000000: 8b73 cc3b a522 ecbd ea72 9e3d d674 f63d
00000010: e94c 97bd 537c 4f3c 3400 fd3d 8c8c 8d3c
00000020: fbf4 4bbd c524 303d 2a33 36bd d86a 223e
00000030: e56c 093e 059c 94bc c8a3 0a3e d88d e73d
00000040: e0e5 9abc deef 5ebd 0021 833c e40f a6bc
00000050: 9713 103e aa2e 2ebd eab2 9cbd 83eb a9bc
00000060: 9e7b 9e3d 2df1 aabd 907c d33c 3716 57bd
00000070: ef16 7b3d 77a0 9bbc cd7c 0dbd 8988 66bd
00000080: ffe1 13bd 4ed0 853d 7c65 22bd 5194 ac3d
00000090: e6b1 753d 47d1 c0bc b2f4 89bd d667 29bd
000000a0: a324 75bd 7e77 423e abaa c0bb 410d e1bc
000000b0: 2f23 dbbc 4f63 053e a87b 25bc 0a21 e53d
000000c0: b30c 2bbd 3226 233c f329 3b3e 3610 ee3d
000000d0: 50d6 3d3d f03b acbd c72b 433d 7500 803d
000000e0: 4c6a 853d eb61 253e a5a6 9fbd 9d44 1ebd
000000f0: 20b7 333d 296a e33d b950 1e3e fc99 213e
00000100: d9a2 87bc 18cb b0bd d915 cabc a839 c0bc
00000110: d5b5 bfbd 04b3 90bd 46aa d1bb e680 173e
00000120: d62f 46bc 5b1f 64bc 45a0 233d 3385 573d
00000130: d64e 7f3b d51a c03d 104f 21bd eb3e d73c
00000140: 523d 56bd 0158 7f3d 9471 1cbd 61b2 293e
00000150: db4e b3bd 1e81 91bd 7402 1fbd 4dc0 b8bd
00000160: 26ac ae3d ae3f dcbb 7e6e 09bd f31e 9abd
00000170: 0cfa b2bc 9919 d33d ca7a d4bc 190a 0abc
00000180: b42f 39bc 2fe2 61bd 6b0d 3e3d 012d eebc
00000190: c6b7 d43d 94a7 943d a547 29bd 4aeb c43d
000001a0: 3a38 5b3c 88e6 af3d 4d45 0b3e d6ca ea3d
000001b0: 05ef 70bc 431e 863d 403b 44bc 89e8 d93d
000001c0: 1907 183b 94cd 95bb fbed d03d 28f5 18be
000001d0: 53e9 6bbd fd32 3f3d 5441 26bd d48d 863d
000001e0: 0613 d33b 5ee4 9f3d 3359 00bd 9b4d c23d
000001f0: a8ed baba 46bf 31bd 0ec9 32bd ccf3 67bd
00000200: 6993 53bd dce5 87bd 5b4b 83bd 5209 d63d
00000210: b74c e2bd 576b 0d3e d07a afbd a4d5 8cbd
00000220: bfa5 9e3c 6991 4cbd 15d8 853d 37e5 14bc
00000230: 20fa 9bbc 5207 3abd da08 8fbc 5b83 93bc
00000240: 2056 24bd cd87 03bd 942f c53d a492 5bbd
00000250: 884e d33c 5ee6 e33c e2dd 223d 7700 273e
00000260: f3bc 283e b2f6 64bd 8959 02bd 888c c0bc
00000270: a3ae d83d 9262 023d 9500 0fbd 5ccc 9fbb
00000280: 4ecc 22bd f351 d6bd 3b44 b13d 6a0c 4d3d
00000290: c043 103d 0a9b 9cbd cb6c 893d 7184 60bd
000002a0: 1e1c 85bd 036c 213e b965 3dbc 019f a6bd
000002b0: 9466 073d 94cb 69bd 51e2 83bb 6550 07bc
000002c0: 40b1 b83d 1dff 893c b8c6 4ebd 4a12 efbd
000002d0: 2e1e 403d 2fea 613c 51c6 a2bd baa4 16bc
000002e0: 808f 26bb 1ec2 bfbd c955 31bd 43ed 6dbd
000002f0: 4b76 39bd 66ee aabc 3092 5abd a343 23bd
00000300: cd03 8f3d c870 933d a492 82bd bd39 493e
00000310: 320c c23d 1088 27bd 47fe cd3d 0b11 82bd
00000320: 72f3 293e 4742 73bc 4d23 b93c ed0f 7e3d
00000330: 0d74 5b3c c997 e33d 778d 74bd d381 b23d
00000340: 61ab e1bc 6222 2ebd 1eb8 e63d 61af bc3c
00000350: 4b2d 5c3c 04a8 4b3d c891 6dbc cca6 233d
00000360: feda 75bb 39ee 0a3d 7740 d7bc b877 f73d
00000370: 859a 083c c9a4 ae3d 704e 99bc e63a e13d
00000380: 3d1f efbd e1bf 193e fe1c aabd dcb0 b2bc
00000390: 6884 ae3d 8e36 ca3d e935 49bd 019b f63c
000003a0: b782 87bd b6cf 21bd b810 913d 2f7c 52bd
000003b0: 08e7 ca3d cf71 d63d 1bd0 d5bd 3e46 00bc
000003c0: f5ca de3b 5210 473d 5df2 b7bd 9245 48bd
000003d0: d563 193b 52a8 24bd da10 b3bb 2c5b 3bbd
000003e0: b6cf 513d 0dc8 16bd 9523 d1bc 1f91 833d
000003f0: 9070 ee3d 1701 b9bc aca3 3dbd f0d3 88bc

mean_linear.weight f4 [3, 256]
0.20551307 0.15164371 -0.14356545 0.09039693 -0.039957464 -0.20245855 -0.038206212 0.045754656
0.23183773 0.092723005 -0.17465857 -0.012642184 -0.16115628 0.2917378 -0.040980093 -0.08109295
0.009024209 0.14022619 -0.04645567 0.22953866 0.103379846 0.12567386 -0.013315711 -0.1083149
0.042599205 -0.06843011 0.23636873 -0.15233073 0.13725184 -0.25259507 0.29651964 0.16166456
0.06799365 0.14740537 -0.06628309 -0.0735797 0.036736887 0.24678409 -0.04929457 0.19535004
0.22513764 -0.031041468 -0.27677625 -0.03385688 -0.055262763 -0.017032327 -0.047790468 0.01363884
0.053786635 -0.17728718 -0.05764929 -0.14442684 0.1413024 0.0769246 -0.03266139 0.022774765
-0.14299291 -0.05641617 0.1040108 -0.13242625 0.2717971 -0.09139049 -0.1154524 0.10483221
0.2683506 0.10399777 0.074056126 0.10975133 0.16820732 -0.079489656 -0.2097308 -0.06188645
0.014714537 -0.217929 0.27685422 0.23647782 -0.11019678 0.014893622 0.19070761 -0.21031079
0.20050628 0.09238239 -0.05743313 -0.08863372 0.12593019 -0.019786354 -0.036333974 0.07420298
-0.027760323 0.16397366 -0.17739384 0.029582767 -0.20047145 0.13719042 -0.14607944 -0.13291779
-0.01414792 -0.11371828 -0.10086411 -0.14105855 0.03633769 -0.022838503 -0.07564777 0.06328287
-0.23988819 0.24699438 -0.14002682 0.016111504 0.026507955 -0.021711625 -0.17798005 -0.16258736
0.21682476 0.20976985 0.012488618 0.0575098 -0.08928363 -0.19271943 -0.13059677 -0.060905453
0.08721601 -0.14179362 -0.09021269 0.08138328 0.23610508 -0.19290292 0.21704791 0.1749283
-0.1446739 -0.019509109 0.19087945 -0.08940186 0.1805802 -0.16951215 0.06978789 0.12748936
0.3538651 -0.035705652 -0.10858772 0.13640882 0.18936536 0.22266644 -0.17356245 -0.027960543
0.08035268 0.08780805 -0.05047533 0.17770924 -0.049332995 0.12346721 0.13586114 -0.096867435
-0.019039342 -0.07578454 -0.23784117 0.22314963 0.098559014 -0.32815763 0.15869361 -0.046460103
-0.0659745 0.019567216 -0.13424473 -0.26501927 0.015028436 0.16520788 -0.20145918 0.05195744
0.16340816 -0.06709642 0.042409174 0.15026937 0.2664614 -0.16264485 0.06348216 0.12781
0.15468605 0.0386937 0.18113275 0.020949613 -0.043527514 -0.1808313 0.11902758 0.03330498
-0.10468384 0.15936911 0.24875711 -0.2876969 0.010454668 -0.17892185 -0.13804907 0.12152473
-0.16109696 0.08362865 -0.028669665 -0.06662158 0.08455689 0.011761078 0.22280802 -0.08524707
-0.057589356 -0.27164242 -0.16104603 0.13759275 0.23803283 -0.11181036 -0.08299385 -0.06114806
-0.10835453 0.07238522 -0.13169189 -0.09444062 -0.25809893 -0.006780829 -0.121420875 -0.15676455
0.011007364 -0.33396232 0.250601 -0.01134725 0.18296261 -0.08913767 -0.17893635 0.101836555
0.1013111 -0.1983482 0.05848772 0.047205273 -0.15439744 -0.030596554 -0.201812 -0.08015123
0.16935837 -0.20212103 -0.14181463 0.046796124 -0.0453601 0.02226 -0.050967786 -0.16308823
0.3161017 0.25392145 0.11819888 0.047041837 0.18766119 0.24748664 0.09559362 -0.17750685
-0.10943251 -0.19258218 0.06180922 -0.09074076 -0.05432567 -0.19462667 -0.11180587 0.24735437
00000000: 0572 523e 7d48 1b3e d202 13be 0722 b93d
00000010: 70aa 23bd 4b51 4fbe 1e7e 1cbd 3c69 3b3d
00000020: df66 6d3e 8fe5 bd3d b2d9 32be 2a21 4fbc
00000030: 2706 25be a85e 953e beda 27bd 1014 a6bd
00000040: 47da 133c 7497 0f3e 4d48 3ebd 2f0c 6b3e
00000050: d0b8 d33d a6b0 003e 242a 5abc 34d4 ddbd
00000060: 817c 2e3d 1625 8cbd a50a 723e 96fc 1bbe
00000070: bf8b 0c3e 2454 81be 6cd1 973e 658b 253e
00000080: 4140 8b3d 6ff1 163e 6ebf 87bd f4b0 96bd
00000090: 6b79 163d f8b4 7c3e 1ae9 49bd d709 483e
000000a0: 7b8a 663e ad4a febc 9eb5 8dbe 83ad 0abd
000000b0: 355b 62bd 6187 8bbc f0bf 43bd 7175 5f3c
000000c0: 604f 5c3d c58a 35be a921 6cbd a1e4 13be
000000d0: 94b1 103e a58a 9d3d f3c7 05bd 2592 ba3c
000000e0: bc6c 12be a414 67bd 9d03 d53d bf9a 07be
000000f0: fd28 8b3e f02a bbbd 4f72 ecbd 45b2 d63d
00000100: 4065 893e c8fc d43d bdaa 973d 4ec5 e03d
00000110: 8a3e 2c3e 79cb a2bd acc3 56be a57c 7dbd
00000120: 3e15 713c c828 5fbe d6bf 8d3e 3e27 723e
00000130: d9ae e1bd 6104 743c db48 433e b65b 57be
00000140: 8551 4d3e fa32 bd3d 003f 6bbd 9985 b5bd
00000150: d8f3 003e fe16 a2bc efd2 14bd bbf7 973d
00000160: 9e69 e3bc b6e8 273e bba6 35be 8f57 f23c
00000170: 6348 4dbe a57b 0c3e d995 15be 9a1b 08be
00000180: adcc 67bc 21e5 e8bd d891 cebd a771 10be
00000190: d4d6 143d d017 bbbc 38ed 9abd 739a 813d
000001a0: 40a5 75be 18ec 7c3e 3163 0fbe 46fc 833c
000001b0: 3627 d93c 94dc b1bc 6740 36be 4d7d 26be
000001c0: 4f07 5e3e e8cd 563e 0f9d 4c3c 658f 6b3d
000001d0: 56da b6bd 3e58 45be 29bb 05be ff77 79bd
000001e0: 4f9e b23d 5932 11be 6ec1 b8bd 47ac a63d
000001f0: 88c5 713e 5888 45be cf41 5e3e 6720 333e
00000200: 6525 14be 91d1 9fbc e775 433e 5318 b7bd
00000210: 04ea 383e 9894 2dbe f4ec 8e3d 928c 023e
00000220: ce2d b53e 1740 12bd 3d63 debd c1ae 0b3e
00000230: fee8 413e ac02 643e 5bba 31be 820d e5bc
00000240: f28f a43d b5d4 b33d 38bf 4ebd 69f9 353e
00000250: 6511 4abd 60dc fc3d 2f1f 0b3e 6f62 c6bd
00000260: 65f8 9bbc ed34 9bbd a38c 73be 5681 643e
00000270: 4fd9 c93d 4704 a8be 9480 223e f34c 3ebd
00000280: a31d 87bd 6d4b a03c 7377 09be 9bb0 87be
00000290: d439 763c 412c 293e 514b 4ebe 53d1 543d
000002a0: 7854 273e d969 89bd 3eb5 2d3d 37e0 193e
000002b0: a16d 883e 5f8c 26be ef02 823d a0e0 023e
000002c0: 0566 1e3e 497d 1e3d dd7a 393e 869e ab3c
000002d0: e849 32bd d72b 39be bbc4 f33d cd6a 083d
000002e0: 7b64 d6bd a831 233e 2fba 7e3e 024d 93be
000002f0: 0e4a 2b3c 4a37 37be bc5c 0dbe f5e1 f83d
00000300: 9af6 24be 7f45 ab3d a5dc eabc e570 88bd
00000310: 2a2c ad3d 89b1 403c c927 643e 0496 aebd
00000320: d1e2 6bbd b714 8bbe 40e9 24be 1de5 0c3e
00000330: e1be 733e d4fc e4bd aef8 a9bd 6376 7abd
00000340: fbe8 ddbd b43e 943d 3dda 06be 156a c1bd
00000350: 8b25 84be b731 debb 82ab f8bd e386 20be
00000360: 3b58 343c 1cfd aabe c64e 803e d1e9 39bc
00000370: 8d5a 3b3e d08d b6bd 173b 37be af8f d03d
00000380: 327c cf3d ca1b 4bbe d290 6f3d 515a 413d
00000390: 5d1a 1ebe a0a5 fabc cea7 4ebe 5426 a4bd
000003a0: 486c 2d3e d1f8 4ebe db37 11be 4bad 3f3d
000003b0: 83cb 39bd 9b5a b63c 99c3 50bd 9a00 27be
000003c0: 15d8 a13e fe01 823e 4112 f23d f1ae 403d
000003d0: 412a 403e 236d 7d3e 96c6 c33d 5bc4 35be
000003e0: 271e e0bd 4334 45be aa2b 7d3d 4bd6 b9bd
000003f0: 9884 5ebd 374c 47be 7afa e4bd 774a 7d3e

mean_linear.bias f4 [3]
-0.049838226 -0.1581578 0.14542173
00000000: 2b23 4cbd 1ef4 21be 6fe9 143e

log_std_linear.weight f4 [3, 256]
0.06547029 -0.00021361982 -0.028412236 -0.05325529 -0.02295788 0.035896394 0.0043137507 -0.010674752
0.093572535 0.03527004 0.043177973 -0.08542277 -0.03641728 0.060456235 0.036651973 -0.031830717
-0.07138855 -0.026729586 -0.0062263366 -0.107211515 -0.08367204 0.043649014 0.092239276 0.08190647
0.011846017 0.031115523 -0.07007913 0.02975201 0.066098645 -0.08996196 -0.08638224 0.09052141
0.13070619 0.06826745 0.013731582 0.008422538 0.0118551 -0.013155055 0.0076840557 -0.05344467
-0.049301255 -0.053561985 -0.008443491 0.010258625 -0.015426587 -0.08962546 0.034700997 -0.07731407
0.09114539 0.032106087 -0.049219936 -0.06185744 0.020871453 0.07114746 -0.021333255 -0.06674131
0.07949606 -0.01747705 0.06478496 -0.058396835 0.06791839 -0.08787238 -0.06729295 -0.07949603
0.027530612 -0.026420439 -0.002831208 -0.02409842 0.0033422196 -0.033238288 -0.09917826 0.07333261
-0.008627376 -0.042088214 -0.049842883 -0.039102536 -0.02782896 -0.0114154145 0.073500596 -0.013882201
0.041357633 -0.021202995 0.055805765 -0.116259396 0.08535156 0.09821488 -0.07495568 -0.009000656
-0.06500422 -0.03066971 0.03823489 0.080247685 -0.09716846 0.020912023 0.016450794 -0.03856546
0.043729063 -0.010819406 -0.015412266 -0.04575522 0.024353523 0.07537343 -0.049605083 0.04442315
0.055819724 0.01371531 -0.015096909 0.02569829 -0.11988107 -0.09596945 0.057814263 0.026773145
0.018599251 -0.002371334 0.004264957 0.08555627 0.04455479 -0.032677833 0.03311621 0.0074811587
0.029488448 -0.09057863 0.01882738 -0.09259412 -0.052000128 -0.09212368 0.051161256 0.027995128
0.029471567 0.08009867 -0.039142706 -0.08134129 -0.03292713 0.013138479 0.07778451 0.022536185
0.017637862 0.06371549 0.046285458 -0.0128609 0.008048115 0.02408071 0.019825548 0.06386256
-0.05945775 0.020055585 -0.033001427 0.016193213 -0.067227565 -0.09139248 -0.046194166 -0.050002284
-0.0675911 -0.043148316 -0.03244362 0.027012868 0.027322957 0.040947862 -0.024771273 0.05860341
0.039219704 -0.016431091 -0.0048761563 -0.02984632 0.022164121 -0.051499967 0.028637236 -0.05022877
0.052635293 -0.11474496 -0.06645841 0.033845577 -0.067638524 -0.039250575 -0.023938324 -0.061245065
0.02510186 0.05224309 -0.005102481 -0.043578073 0.077448696 -0.0047007944 0.017083332 -0.06299416
0.015205626 0.029297028 0.01232713 0.0119231865 0.095330164 -0.04507796 0.017663294 0.03085507
-0.046654705 0.049053486 0.035475243 -0.046766385 0.07883148 -0.02751661 -0.039314777 0.14280252
-0.0065858066 -0.046813652 -0.074451335 -0.07682284 0.07486345 -0.02347589 0.022734707 -0.056642096
0.040167537 -0.05210756 0.06116842 0.030372903 0.024920588 0.0063063414 0.035979394 -0.10188456
-0.07981616 0.003659038 0.07622014 0.012354135 -0.008048411 0.0625487 -0.03653784 -0.06345912
0.012721932 -0.095811054 0.05068428 0.05636305 0.012083824 0.07376113 0.09691489 0.029720046
-0.024801705 0.004554328 -0.00011775753 0.035684578 -0.085851766 -0.04902403 0.0756004 -0.037598442
-0.06354804 -0.06029938 -0.015537305 -0.08136217 0.06694177 0.010042445 -0.055709053 0.08535641
0.03350777 -0.031052532 -0.020131353 0.053766433 0.015433954 0.012123414 -0.014899652 0.13323177
00000000: 4a15 863d 22ff 5fb9 c7c0 e8bc 3822 5abd
00000010: 2a12 bcbc 1908 133d 5d5a 8d3b 28e5 2ebc
00000020: f5a2 bf3d 5177 103d 63db 303d 22f2 aebd
00000030: 492a 15bd f5a0 773d 6120 163d ed60 02bd
00000040: 2934 92bd 01f8 dabc 4c06 ccbb b691 dbbd
00000050: 3f5c abbd 4fc9 323d f2e7 bc3d 94be a73d
00000060: cc15 423c fbe5 fe3c a685 8fbd 7dba f33c
00000070: ba5e 873d fa3d b8bd 2ce9 b0bd 4a63 b93d
00000080: d8d7 053e cecf 8b3d 6efa 603c affe 093c
00000090: e53b 423c 4d88 57bc 88ca fb3b cce8 5abd
000000a0: 1df0 49bd d063 5bbd 9156 0abc cb13 283c
000000b0: ccbf 7cbc 8e8d b7bd a222 0e3d d756 9ebd
000000c0: 6faa ba3d ac81 033d d89a 49bd 3a5e 7dbd
000000d0: 9cfa aa3c c2b5 913d 14c3 aebc abaf 88bd
000000e0: d5ce a23d 082c 8fbc faad 843d 8531 6fbd
000000f0: cc18 8b3d 6ff6 b3bd e3d0 89bd d1ce a2bd
00000100: e187 e13c ad6f d8bc ca8b 39bb 0d6a c5bc
00000110: 2409 5b3b df24 08bd f91d cbbd 682f 963d
00000120: d659 0dbc b164 2cbd 0d28 4cbd fb29 20bd
00000130: 8ff9 e3bc b807 3bbc 7b87 963d 2c72 63bc
00000140: 9f66 293d e7b1 adbc 9694 643d 6819 eebd
00000150: cccc ae3d e224 c93d 5d82 99bd 7d77 13bc
00000160: ef20 85bd 0b3f fbbc 309c 1c3d e658 a43d
00000170: 4200 c7bd b14f ab3c d1c3 863c d1f6 1dbd
00000180: 3f1d 333d e143 31bc bb83 7cbc d369 3bbd
00000190: 0a81 c73c 635d 9a3d b32e 4bbd 0df5 353d
000001a0: 39a3 643d 2eb6 603c 0759 77bc 3885 d23c
000001b0: 3584 f5bd a28b c4bd a6ce 6c3d 5b53 db3c
000001c0: 755d 983c 6268 1bbb 0dc1 8b3b 2038 af3d
000001d0: 157f 363d 31d9 05bd dda4 073d 8224 f53b
000001e0: c291 f13c 4a81 b9bd e13b 9a3c fca1 bdbd
000001f0: 16fe 54bd 57ab bcbd 778e 513d 0a56 e53c
00000200: 5b6e f13c c60a a43d 1a54 20bd 4396 a6bd
00000210: 99de 06bd c642 573c 7c4d 9f3d ce9d b83c
00000220: 477d 903c 447d 823d d295 3d3d 86b6 52bc
00000230: 3edc 033c e944 c53c 3069 a23c 60ca 823d
00000240: f889 73bd 9c4b a43c 812c 07bd a1a7 843c
00000250: 9bae 89bd fb2b bbbd 1836 3dbd 32cf 4cbd
00000260: 346d 8abd 4abc 30bd 9ae3 04bd 174a dd3c
00000270: 65d4 df3c f2b8 273d 20ed cabc 210a 703d
00000280: d7a4 203d 7f9a 86bc 2ac8 9fbb 4580 f4bc
00000290: 8891 b53c a1f1 52bd a398 ea3c afbc 4dbd
000002a0: 1b98 573d 68ff eabd 591b 88bd a9a1 0a3d
000002b0: 1186 8abd 36c5 20bd 4e1a c4bc 1bdc 7abd
000002c0: 6aa2 cd3c dafc 553d b732 a7bb ec7e 32bd
000002d0: 6c9d 9e3d 1f09 9abb 58f2 8b3c 1503 81bd
000002e0: 0521 793c 5200 f03c bbf7 493c 7859 433c
000002f0: 763c c33d aba3 38bd 9db2 903c c6c3 fc3c
00000300: 0119 3fbd 4fec 483d 7d4e 113d 1c8e 3fbd
00000310: 6672 a13d 846a e1bc 8808 21bd d33a 123e
00000320: c0cd d7bb acbf 3fbd f179 98bd 4b55 9dbd
00000330: 0252 993d 8250 c0bc 233e ba3c 8b01 68bd
00000340: b786 243d bd6e 55bd bd8b 7a3d 98d0 f83c
00000350: 4326 cc3c 6da5 ce3b 215f 133d daa8 d0bd
00000360: a876 a3bd 79cc 6f3b 4e19 9c3d ff68 4a3c
00000370: 7cdd 03bc 8819 803d b4a8 15bd dbf6 81bd
00000380: a66f 503c 9638 c4bd 529a 4f3d f1dc 663d
00000390: 3bfb 453c 1310 973d 507b c63d 7477 f33c
000003a0: f22c cbbc 793c 953b 98f4 f6b8 fe29 123d
000003b0: 0dd3 afbd 6ccd 48bd 62d4 9a3d d300 1abd
000003c0: 7a25 82bd 7cfc 76bd 2e90 7ebc 36a1 a6bd
000003d0: c418 893d 1189 243c 2d2f 64bd 57cf ae3d
000003e0: 723f 093d e161 febc 82ea a4bc 313a 5c3d
000003f0: b2de 7c3c 49a1 463c ac1d 74bc e96d 083e

log_std_linear.bias f4 [3]
-0.07175265 -0.105891645 -0.10747306
00000000: 0ef3 92bd b8dd d8bd d61a dcbd
